Best Model/MyBest.pt (torch_old, 153401 bytes, 16 tensors)

conv1.weight f4 [10, 3, 3, 3]
00000000: 0dbb 44bd 375c 793d 2b4a 22bb 0c9c 96bd
00000010: d135 98bd 9b98 833d fef3 11bc a84c 24bd
00000020: 6d41 21bd 0524 433d c4ee 48bd 56e3 8137
00000030: 87a0 9ebc 8949 10be af09 9b3d 0ebb 27be
00000040: bcad 953d c31c 2bbe 4afd b8bb 0e84 3dbe
00000050: 7146 41be d21e d43d 73a7 2bbe e953 1cbe
00000060: b971 26bd b862 c6bc cbae 7e3d 2a87 f4bd
00000070: bad0 65be 0a00 b5bd 5e76 3dbc b779 66be
00000080: 99fa 02bd f22c 243e e937 dc3d 2c07 3a3e
00000090: 130a 2cbd 7471 1c3c b7dc debd 08f3 5e3c
000000a0: 276e 9cba 5e0f 29be fbf8 073d aa17 933e
000000b0: f3ce 943e ee0b 99bc 3ad3 813d 541b 92be
000000c0: 1fd4 34bd d29a d6bd 7209 0c3e 4d0d cc3d
000000d0: 12fe 313e b0d1 0e3e 1c73 13be 6965 eebd
000000e0: ba19 16be 6d8c 5d3d 9b3c 233e ac51 623e
000000f0: 03f3 953d 14d0 d5bc c948 413d 398e a5be
00000100: 53ff 4c3c 1909 1d3d e83f 8abe aba9 bdbd
00000110: 6eb3 c83d 2220 62bd cfb5 3ebe b86d 093c
00000120: 205b 1ebc 0472 b53c 4883 643e e782 a43d
00000130: 5b62 24be 45d4 093e 0505 46bd 3e67 a63d
00000140: 994e 253e ded7 e9bd 2421 633d e7bd 603e
00000150: e155 21be 0128 21bd 9217 48bd 8f5f 243e
00000160: 5bae 243e 2828 93bc ea22 21be 2d14 8bbe
00000170: c94c 2bbe 41a1 8dbd 70e0 873c 8eac 7cbe
00000180: 96b4 1d3d dd54 923d c20c 3abe 5bc3 673e
00000190: b6dd 28be 72a7 883e 127a b53c 2164 f03d
000001a0: 6cdb 7f3d a2e0 ba3d 128e 943d 451e 49bd
000001b0: 9fbd 0bbe 588a 91bb c58c 0a3e dd28 373d
000001c0: c1ad 583e 4df8 483e 2d86 22be 4a23 0a3d
000001d0: 72e2 e83d 2d46 0d3e 6574 16be e7ba 98bd
000001e0: c6fa 8d3c 8bed cebc bfab 4c3e 8860 66be
000001f0: d5be 46be a2af 17bb 2534 4e3e f56b 74bd
00000200: b1a9 21be 0d71 003d 1b36 873c 4aee 15bd
00000210: 1ff2 d5bd bdc5 0bbb ff6c 803d fe6d 86ba
00000220: bc21 083e 7ad9 23be 7e97 1d3d 1a99 c23d
00000230: 61b9 2d3e 86c7 8fbe f1e3 bd3b 59d2 01bd
00000240: ba5a 783e b258 673e 3872 093e f518 64bd
00000250: 3b10 bdbd 09f1 84bb a93d dabd 1544 c7bc
00000260: 3032 f5bd 6664 f93c b8dc 673e 8544 f03d
00000270: 6d32 8bbc 4665 523e a9df 263e ae1c 96be
00000280: 37ac 85be 359a 7cbe 7782 3dbb 911e 7ebe
00000290: 2491 8d3e 9325 313e f9d7 4cbe ae82 033e
000002a0: 835c 5d3e 3839 0fbd a82a 113e b1ed ae3d
000002b0: 06dc 92be 0f7f 963d 2626 203d a47c 41be
000002c0: cc69 0e3e 980f 26be b66b 57bd 6352 3bbd
000002d0: 31bd e0bd 8555 413d 27a3 763e f49d 81bd
000002e0: 0aa4 55be f51e 393e 52dc 253d e018 30be
000002f0: 20a3 2e3e f502 87bd 0e82 9d3d bb62 623e
00000300: 1a91 21bd 4e2d cdbc 652e 063e f5f8 143e
00000310: a62d 573e c66e 203e 87a7 19bd 245c 55be
00000320: ed42 5ebe d0c7 68bc 3c60 973d 1d9f 56be
00000330: 415f 113c d155 04be 7fde 8a3d 0b42 c23d
00000340: fd95 143c ab7a e5bc 557f bfbc 8062 b1bd
00000350: ef5e b9bd d9ec 6e3d 00ef 45bc 45a1 f53d
00000360: 5570 043d eead 853c 7bc5 e73d 20a8 1f3e
00000370: 24d1 443b 83a9 c3bd b69b c23d f6db e13c
00000380: 47e3 343e 5107 a83d c4d5 9ebe 6d90 0dbe
00000390: 9477 723e a56f 8ebe 2638 72be 3388 d03c
000003a0: 07cd 433d 57e7 e9bd 68e6 8d3e 68a6 18be
000003b0: 52de afbd 8ac4 653e 5ab0 6bbe 9f3a 00be
000003c0: 612f e43d 5d87 d33c 58ec a03d 5f29 3ebe
000003d0: 7c15 80be 55d2 56be db72 313e 3ad7 4c3e
000003e0: a9d0 893d bc67 18be 7dd8 3dbe f64c 86bd
000003f0: 5a91 b2bd 2d9f 07bd 2637 a0bd 374c 913e
-0.048029948 0.06087896 -0.0024763446 -0.07353982 -0.0743214 0.064255916 -0.00890827 -0.040112168
-0.039369036 0.047641773 -0.04905583 1.548386e-05 -0.019363655 -0.14090551 0.075702064 -0.1637995
0.07308528 -0.1671019 -0.005645429 -0.18507406 -0.18874528 0.10357441 -0.16763096 -0.15266384
-0.040635798 -0.024216995 0.062178414 -0.11939843 -0.22442904 -0.08837898 -0.0115638655 -0.22507368
-0.03197727 0.1603277 0.107528515 0.18166798 -0.042001795 0.009548534 -0.10881942 0.013607748
-0.0011934683 -0.16509768 0.03319643 0.28728992 0.2906414 -0.018682446 0.063391164 -0.28536475
-0.044147607 -0.104787484 0.13675478 0.099634744 0.17382076 0.13947177 -0.1439938 -0.11640436
-0.14658251 0.054089 0.15941088 0.22101468 0.073217414 -0.026100196 0.047188554 -0.3233507
0.012512046 0.038338754 -0.27001882 -0.09260877 0.097998485 -0.055206425 -0.18624042 0.008387975
-0.009665281 0.022149093 0.22315705 0.0803278 -0.16053145 0.1345988 -0.04834463 0.08125161
0.16143264 -0.114181265 0.055451527 0.21947442 -0.15755416 -0.03934479 -0.048850603 0.16052078
0.16082136 -0.017963484 -0.15735975 -0.2716383 -0.1672851 -0.06915522 0.016586512 -0.246752
0.0385023 0.07145093 -0.18168929 0.22633116 -0.16490826 0.2669025 0.022152934 0.11737848
0.062465116 0.091248766 0.0725366 -0.049101133 -0.13646553 -0.0044415407 0.13530262 0.044716705
0.21160032 0.19625969 -0.15871496 0.03372506 0.11371316 0.13796301 -0.14692838 -0.07457524
0.017331492 -0.025259754 0.19987391 -0.22497761 -0.19408734 -0.0023145457 0.20137079 -0.05967327
-0.15787388 0.031357814 0.016505292 -0.036604203 -0.104465716 -0.0021327578 0.06270789 -0.0010256169
0.13294119 -0.1600093 0.038474552 0.09501858 0.16965248 -0.28081912 0.005794995 -0.031694744
0.2425336 0.22592428 0.13422477 -0.055687863 -0.09231611 -0.004057054 -0.10656292 -0.024324456
-0.11972463 0.030443382 0.22642791 0.11731819 -0.016991818 0.20546445 0.16296257 -0.29318756
-0.26107952 -0.246682 -0.0028916874 -0.24816348 0.27649796 0.1729949 -0.20004262 0.12842819
0.21617322 -0.034966677 0.14176428 0.0854143 -0.2868349 0.07348453 0.03909888 -0.18895203
0.13907546 -0.16216886 -0.052592956 -0.045732867 -0.109735854 0.0472007 0.24085675 -0.06328955
-0.20863357 0.18078215 0.040493317 -0.17196989 0.17054415 -0.06592361 0.076908216 0.22107975
-0.03944502 -0.025046017 0.13103636 0.14548095 0.21013507 0.15667257 -0.037513282 -0.2083593
-0.21705218 -0.014207795 0.07391402 -0.20959134 0.008872808 -0.12923361 0.06780719 0.09485253
0.009068963 -0.028012594 -0.023376146 -0.086613655 -0.0905131 0.058331344 -0.012080908 0.1199365
0.03233369 0.016318288 0.11316963 0.15591478 0.0030031884 -0.09553816 0.09502356 0.027570706
0.17664824 0.082045205 -0.31022465 -0.13824625 0.23678428 -0.27819553 -0.23654231 0.02545557
0.04780295 -0.11421078 0.2771485 -0.14907229 -0.08587326 0.22438255 -0.23016492 -0.12522362
0.11141849 0.025821382 0.07857579 -0.1857047 -0.2501639 -0.20978673 0.1732897 0.20003977
0.06729252 -0.14883322 -0.18539615 -0.06557648 -0.0871913 -0.033110786 -0.07823019 0.2837846

conv1.bias f4 [10]
00000000: c840 893e 37b6 103d 3f4c 2d3e bd39 4d3e
00000010: 107d 3f3d 056a e03d 4805 693d 1171 193e
00000020: 4273 1f3e cd59 873e
0.26807237 0.035330024 0.16923617 0.20041557 0.04675013 0.109577216 0.056889802 0.14984538
0.15571311 0.264357

conv2.weight f4 [10, 10, 7, 7]
00000000: d02a 54bc d318 01bd 6069 2fbb 71dd b0bb
00000010: 9a54 d0bc 9ddf 643c 582c d53c c7e9 b93c
00000020: 7a2c 69bc a496 353c acbf 25bd 5fde 19bc
00000030: 7fa0 dc3c 3413 a0bc 8e2a f33c d6b8 293c
00000040: 86ab 263d 05e1 f5bc 9cdf 8abc cc3f a7bc
00000050: 1522 4bbd 2812 123c 8f5c fdbc ec4c debb
00000060: 72ab 1abd 13ce 673c ec74 f8bc 35da b6bc
00000070: c259 aabc dc9f 94bc acc5 80bc a35d 14bd
00000080: d674 923c 9dd3 37bb 5287 36bc b070 563c
00000090: d1b9 3cbd 82cb f43c b689 1f3d 6140 9fbc
000000a0: 9278 dc3c 20c4 01bd b2cc 8ebb e26e b63c
000000b0: e89c 013c 6b77 15bd c83c c8bc b3f9 d1ba
000000c0: 37a6 eebb 2e1c fabb 699d c6bc e59b a23c
000000d0: ce2a 643c 1a49 d0bc 3b94 0abd 460f 073d
000000e0: a736 57bd 9556 00bd 81c2 20bd 1a2a ffbc
000000f0: 190e e8bc 3b66 0f3d c48c 4c3b 45f4 8c3c
00000100: 1c3a 333d d5b3 efbc 76c3 be3c f365 933d
00000110: aad4 9d3c afb4 893b b525 3d3d 9e33 e0bb
00000120: c092 573c ad20 d13b 8ab8 343d c4e2 393d
00000130: 83bd bc3d 8fbf acbd b87f 373c d6dc 2d3d
00000140: 4f55 ac3c 8900 123d 4b36 e7b9 707c 1f3d
00000150: 426e 45bc f54b c53b c590 81bc 5c69 c73c
00000160: e8fb c23c b6c6 15bd 1d62 e6bc 3479 3ebd
00000170: 10f5 4c3d c9a6 96bc 1a60 013d bbb6 a4ba
00000180: 917f c53c 6d85 49bd f9a9 803b 4e5b df3c
00000190: 7f2e 51bd 9883 a3bc b4f5 0f3d 99f9 02bd
000001a0: 9e8e 30bd 4288 b7bc e247 573c 7134 bb3c
000001b0: 838f 2abc 82c9 3e3d bce0 08bd da9c 65bd
000001c0: f254 c03c 4bef 8f3d 8c8d 0fbd 8422 16bc
000001d0: dba0 aebc b4ca 683c 7cd7 e73c fe0c 57bd
000001e0: 9d72 3dbc b596 09bc 6bed 063d 657a 11bd
000001f0: ef70 16bd e229 b7bc 6e04 bfbc 2c54 dfbc
00000200: 0422 8dbd 4e2d 6b3c df68 ca3b 2dca 31bc
00000210: 7fc3 9cbc c055 41bc 9798 e83b 2c74 dbbc
00000220: 1bad 85bd 54e4 0a3c 6783 063d dee1 05bd
00000230: eff2 333d b97b ac3c 1f79 553d 88a5 b4bc
00000240: 7361 68bc eeec 13bd fde7 a93c e308 133d
00000250: c0f9 53bc 663c 1d3d baad 213d 79d0 1ebc
00000260: 43d9 2abd c0c1 de3b d489 113d c8d7 1d3b
00000270: ccfa c7bc c3f4 4a3c 397f 45bc af6a 19bd
00000280: cd8b 62bc 488b 0a3c 00ab f3bc 521d 45bd
00000290: 3e8a ef3c 0a31 ff3c dab3 e0bc a7b4 dc3c
000002a0: b97c 713c 50d3 b1bc f07a 083b dcb3 babc
000002b0: 8850 62bc 39af 1ebd 4f41 7c3d b0b8 60bc
000002c0: f60f a5bc 8952 cebc 0796 8b3c aef5 bdbc
000002d0: 0ce0 d53c 9ada 443d d7db 213d e544 43bd
000002e0: 603e 4abd d24a cb3c 781a 3ebd 6085 2a3d
000002f0: d077 5a3d 45b1 a83c bacb 323b 145b 6abd
00000300: 8cd2 b5bc 2998 1cbd 6722 ff3c aa44 8fbc
00000310: 6e79 fdbb 7231 ad3c 814e cf3c c867 1c3d
00000320: 1a89 9a3b 7ce6 81bc 3ac6 c63c 11cb 1ebd
00000330: 81c4 57bc 2d32 c1bc 42c2 3f3a 02b0 633b
00000340: d3a2 9dbc 9737 0bbd 2702 873c 1262 9abd
00000350: c546 15bd ab92 00bb c244 70bd 89fa c8bc
00000360: 7b18 c93b 94c2 ae3b 3214 d13c d4b0 69bc
00000370: 7f3d 383d f46a b7bc ea41 d23c 2952 bcbc
00000380: 0a20 4abd 2bc7 85bd 8b70 e9bc e168 19bd
00000390: ffaa 83bc 333e e03b 4dc8 0d3d 9054 2d3d
000003a0: 60ff 823d 0733 a63c e349 1ebc aca5 523c
000003b0: 6f0c 1bbd f8da 9c3c f62f 9d3b 81d2 423d
000003c0: 766b 113a d763 b1bc b83a 733c 1c6a d73c
000003d0: 32c3 23bd bcaa 813c 55f5 f2bb 164b 09bd
000003e0: 7b2f 13bd 7d38 02bd bc8b 94bc bd13 fb3c
000003f0: 5bc7 e6bc 32c2 1fbd 9478 8dbd 2c87 b2bd
-0.01294966 -0.031517815 -0.002676569 -0.0053974916 -0.025430966 0.013969329 0.026022121 0.022694482
-0.014231795 0.011083279 -0.040465996 -0.009391396 0.026932 -0.019540407 0.029683378 0.01035901
0.04069092 -0.030014524 -0.016952328 -0.020416163 -0.04959305 0.008915462 -0.030927924 -0.006784072
-0.03776116 0.014148253 -0.03032919 -0.022320846 -0.020794753 -0.018142633 -0.015719257 -0.03622211
0.017877977 -0.0028049715 -0.011140661 0.01308839 -0.046075646 0.029882196 0.03894969 -0.019439878
0.026912961 -0.03168118 -0.0043578977 0.02226967 0.0079109445 -0.03649084 -0.024443045 -0.0016019851
-0.007282998 -0.007632754 -0.02424498 0.019849727 0.013926221 -0.025425483 -0.03383277 0.03297355
-0.052542355 -0.03133257 -0.039247993 -0.031148005 -0.028327035 0.035009604 0.0031211833 0.01720632
0.04375659 -0.029260555 0.023286562 0.0719718 0.019266445 0.0042024474 0.04617854 -0.0068420907
0.0131575465 0.006382069 0.044121303 0.045382276 0.09215834 -0.084349744 0.011199884 0.042446934
0.021036772 0.03564504 -0.00044100205 0.038937032 -0.012050213 0.0060210177 -0.015816102 0.024342231
0.023801759 -0.03656646 -0.028122956 -0.046502307 0.050038397 -0.018390076 0.03158579 -0.0012566665
0.02410868 -0.04919951 0.0039265123 0.027265217 -0.051069733 -0.01996021 0.03514643 -0.031976316
-0.04310476 -0.02240384 0.013139697 0.022852154 -0.010410192 0.04657889 -0.03341745 -0.05605779
0.023478005 0.070280634 -0.0350471 -0.009163503 -0.021316936 0.014208484 0.028300993 -0.052502625
-0.0115629705 -0.008397748 0.032941263 -0.035517115 -0.036728796 -0.022358838 -0.023317542 -0.027261816
-0.068912536 0.014354063 0.0061770524 -0.010851425 -0.019136189 -0.01180023 0.0070982683 -0.026788794
-0.06527158 0.008477289 0.03284016 -0.032686107 0.04393285 0.02105509 0.052117463 -0.022051588
-0.01418339 -0.036114626 0.020740503 0.035897147 -0.012937963 0.03838768 0.03947232 -0.009693258
-0.041711103 0.006797999 0.035531834 0.0024084914 -0.024411581 0.012387457 -0.012054258 -0.037455257
-0.013827276 0.008456059 -0.029744625 -0.048123665 0.029240724 0.031151313 -0.02742951 0.02694161
0.014739209 -0.021707207 0.002082523 -0.022790842 -0.013813145 -0.038741324 0.06158572 -0.013715908
-0.020149212 -0.02518584 0.017039312 -0.023188438 0.02610781 0.048060037 0.039516296 -0.047673125
-0.04937589 0.02481595 -0.04641196 0.041631103 0.05333692 0.020592341 0.0027282075 -0.057215765
-0.022195123 -0.03823105 0.031144334 -0.017488796 -0.007735423 0.021141741 0.025305988 0.03818491
0.004716051 -0.015856974 0.024264444 -0.038767878 -0.013169409 -0.023583496 0.00073150184 0.003474236
-0.01924268 -0.03398856 0.016480519 -0.07538237 -0.036444444 -0.001961867 -0.058659323 -0.024533527
0.0061369515 0.005333254 0.025522325 -0.0142633505 0.044980522 -0.022389866 0.025666196 -0.022988396
-0.04934696 -0.06532129 -0.028496047 -0.037453536 -0.016072748 0.006843352 0.03461485 0.042316973
0.06396365 0.020288004 -0.009661171 0.012856882 -0.037853654 0.019147381 0.004796977 0.047564033
0.0005547324 -0.021654053 0.014845543 0.026295714 -0.039981075 0.015828483 -0.0074144998 -0.033518873
-0.035933953 -0.031792153 -0.018133037 0.03064906 -0.028171232 -0.03900356 -0.06907764 -0.08717188

conv2.bias f4 [10]
00000000: 60c9 e0bc d44c 48bc 5cb0 933c 7bb7 cebc
00000010: ca12 163d 74e8 363d 273e 19bd db6b ab3c
00000020: 2d55 963c 4e17 64bc
-0.027439773 -0.0122253485 0.01802843 -0.025233975 0.036639012 0.04465528 -0.03741279 0.020925453
0.018351162 -0.013921572

conv2_bn.weight f4 [10]
00000000: 2a88 873f 158a 7d3f c26f 713f b012 633f
00000010: d27e 7b3f 75d7 7e3f 39c1 863f 0f6a 763f
00000020: eafc 803f 45ad 813f
1.0588429 0.9903882 0.94311154 0.8870039 0.9824039 0.9954751 1.0527717 0.9625558
1.0077183 1.0131003

conv2_bn.bias f4 [10]
00000000: dbc4 74bd 4078 c3bd d702 20be 3e21 59be
00000010: a1c1 d5bd 0c8e 24be 9785 13be 1dc8 5fbe
00000020: e494 01be e1f5 90bd
-0.05975805 -0.0954442 -0.15626083 -0.21204087 -0.104373224 -0.16069812 -0.14406429 -0.21853681
-0.12654454 -0.07078148

conv2_bn.running_mean f4 [10]
00000000: 0deb a5be fc72 38be c66a 53be 03a6 bb3d
00000010: b9da 16bd 17f0 a3be a3e0 d2be c027 97be
00000020: a68e 87be 4261 a5be
-0.32405892 -0.18012613 -0.206462 0.091625236 -0.036829684 -0.32019112 -0.4118701 -0.29522514
-0.2647602 -0.32300764

conv2_bn.running_var f4 [10]
00000000: 93fc 3a3c 0e69 303c 2865 353c 1afc 3d3c
00000010: fbc0 143c 9758 673c a000 453c 3613 713c
00000020: ebc6 4a3c cfd0 313c
0.011412757 0.0107672345 0.011071481 0.01159575 0.009079213 0.014120243 0.012024075 0.014714053
0.012376527 0.0108530065

fc1_bn.weight f4 [32]
00000000: 7cb8 a83f 09ed af3f 07f2 a53f d8bd ac3f
00000010: 6812 ab3f 4834 b33f d07f ac3f b022 ad3f
00000020: 6179 a23f 845d c33f 9da7 9c3f 439d bf3f
00000030: 3585 b53f 7bac a13f ae9c bd3f 46d8 b03f
00000040: 3416 cf3f dbc4 b13f da23 bb3f 13cc be3f
00000050: 9234 d53f 94cf bb3f 5914 b93f 489f c83f
00000060: 9ac6 c13f ae83 b83f 5f29 d13f 681c c23f
00000070: 6f80 b83f e1ab bb3f 0e82 ba3f dd09 dd3f
1.31813 1.3744212 1.2964486 1.3495436 1.3364992 1.400033 1.3476505 1.3526211
1.2693292 1.5262914 1.2238652 1.4969867 1.4181277 1.2630762 1.481344 1.3816001
1.6178651 1.38882 1.4620316 1.4906029 1.6656668 1.4672723 1.4459335 1.5673609
1.5138733 1.4415185 1.634075 1.5164919 1.4414195 1.4661828 1.457094 1.7268635

fc1_bn.bias f4 [32]
00000000: 059e c23d 7a8a 703e 07e1 243e 3431 2d3e
00000010: e293 1d3e 1a6c 413e fe78 113e b1e0 513e
00000020: 2790 023e c08c 863e 896d c93d 4840 783e
00000030: e207 4d3e 0e20 033e 2173 873e b177 7b3e
00000040: c1cb a93e c086 2b3e 1446 573e b2fe 603e
00000050: 5f6d 8b3e e979 9b3e 16f3 7d3e b002 8a3e
00000060: 8c03 b53e e56b 1a3e 03d3 a73e 7681 a03e
00000070: ecb3 2a3e 70dc 1b3e ec2f 803e 9cd7 7f3e
0.09502796 0.23490325 0.16101466 0.16913301 0.15388444 0.18888894 0.14206311 0.20495869
0.12750302 0.2627926 0.09835345 0.24243271 0.20022538 0.12805197 0.26455024 0.24557377
0.33163264 0.16750622 0.21022826 0.21972159 0.2723188 0.30366448 0.24799761 0.26955175
0.3535427 0.15080221 0.32778177 0.3134877 0.16670197 0.15220809 0.2503656 0.24984592

fc1_bn.running_mean f4 [32]
00000000: e1bb 3d3b bac5 09bf aed2 bdbe cb01 91be
00000010: d24c babe a4e8 8f3e 7aec 9ebe cdc7 6f3d
00000020: 9caa e1bd 63f1 f6bc f3a5 3cbf dc32 51bf
00000030: 8b5b 94be 7799 8dbd 849d 01bf 1fc7 0cbf
00000040: 4452 a9be ccd5 cbbe 827d 323d 8300 83bf
00000050: 5ff3 3b3f 7896 56bd b8af c9bd be3f afbd
00000060: 434b 99be e4d6 99be acc8 e7be 0fd7 e6be
00000070: 3312 3dbb 0738 dc3d 32bf 973e 16cb 21bc
0.0028951096 -0.5381733 -0.37074798 -0.2832168 -0.36386734 0.28107178 -0.31039792 0.058540154
-0.11018869 -0.030144399 -0.7369072 -0.8171823 -0.28976092 -0.06914037 -0.50630975 -0.54991335
-0.33070576 -0.39811552 0.043576725 -1.0234531 0.7341823 -0.052389592 -0.09847969 -0.0855708
-0.29940233 -0.3004676 -0.45270288 -0.45085952 -0.002884996 0.10752874 0.29638058 -0.00987508

fc1_bn.running_var f4 [32]
00000000: 49c5 553e 69df 593e 60b5 7c3e f135 383e
00000010: 4b44 633e 4bf6 b23e b194 883e bdb8 873e
00000020: d694 6a3e a27c b53e 8589 5d3e 4df4 933e
00000030: 0dce 833e 0518 c33e c5bb 7f3e 619b 8f3e
00000040: 5201 d03e fa32 6d3e d2c8 753e 8ac7 af3e
00000050: e115 063f 02f7 ab3e b562 a63e e02b be3e
00000060: 070a a43e 722f 5a3e a658 a23e a8f7 6d3e
00000070: dd65 613e 763f 863e 755a 7f3e f08e d13e
0.2087604 0.2127663 0.24678564 0.17989327 0.2219402 0.34953532 0.26675943 0.26508132
0.22908339 0.3544665 0.21634491 0.28897324 0.25743142 0.38104263 0.24973972 0.28048232
0.40626007 0.23163977 0.24002388 0.34331924 0.52377135 0.3358689 0.32497182 0.3714285
0.320389 0.21307161 0.31708258 0.23239005 0.22011514 0.26220292 0.2493685 0.40929365

fc1.weight f4 [32, 1000]
00000000: f431 67bc 9050 c33b ea1f cdbc 7bc2 11bd
00000010: c6da d3bc 46d9 bbbc 5ecb e53c a300 e83a
00000020: 4c2a 423c ab3a 233d b4ad 423c 9298 723b
00000030: 9606 7b3c e750 47bd b159 56bc f857 3bbd
00000040: 9649 07bd ebf9 25bd 9383 78bc 7e5e 823c
00000050: a03e 6f3c c074 d43c c2e6 3dbc cc08 0cbd
00000060: fb91 57bc f445 56bd 5d4f 51bd 8aa9 f2bc
00000070: d299 b33b fc5f eb3c b0c0 c6bc 7da3 013c
00000080: 9aba 86bc 9b0e 66bc 8da2 1b3c 5b3f a93c
00000090: 44b9 e63a 2be0 d93c 9cd4 a0bc 66d2 583c
000000a0: 6ded b5bb c5c2 743c 27cf 8c3c 264a 363d
000000b0: 1db9 513c fd84 0fbd 0af4 ae3c e7d5 883c
000000c0: 7cef 1a3d 943f a23c 07e3 27bd 37f6 693c
000000d0: 3fd6 15bc 80d8 8bbc b451 d7bc 4ce2 343c
000000e0: 3cd9 a3bc 6e50 72bb 853d 18bb f92d 6e3c
000000f0: 1cb2 1dbd 8ecd 52bc 2f40 1b3c 26ba 79bc
00000100: 1772 fa3b abf7 08bd 32f8 d2bc a8a7 ce3c
00000110: 8268 0ebc bd1c c73b 029b e83c cfa2 ca3c
00000120: 369e ae3c bd95 d83c fc02 75bc 4407 c7bc
00000130: 0ca5 213c 07c3 bc3a c755 073c 5674 9fbc
00000140: 88d9 2f3d fe11 fd3c 1817 53bb d0bb 9ebc
00000150: fb92 96bb 129d c7bc 7dcc 5f3c e4a1 073c
00000160: 3991 823b 1eae 883b 72d6 e0bc 2c27 003d
00000170: 2c75 c4bc 93ba b3bc 9f44 6bbc 1b0e c5bc
00000180: 164f ce39 6399 ad3c 30c0 5f3b f6ed 643c
00000190: eea7 5b3c 9e4c 3abd 2bcc 033d 8f03 d33c
000001a0: af9c 063d 38c1 6cbc b98b 993b ff8f db3b
000001b0: 858d 003c 372b 053c d99c 1cbd 5450 c03c
000001c0: 346e 44bc 58db ecbb cea4 fdba 303b f83c
000001d0: 6c71 c2bb 2eb0 df3c 0112 8f3c ef91 e6b9
000001e0: 4fc1 32bc 016d bb3c 0189 44bb ab6a e93c
000001f0: e38d e0bc 2bab d7ba 379e 0abd 7fa4 203d
00000200: d03c c2bc 2b76 45bc da66 1b3c a0e0 b13c
00000210: 2105 883c 9719 d239 6f18 273b 2287 bb3c
00000220: 1911 a8bb 4a73 6c3b ebb0 ffbc c03f 953c
00000230: 346d cbbc 7767 5abc 9b54 29bc b5c8 91bc
00000240: c2f7 e8bc 963c 6dbc 444a 223d 2527 2f3c
00000250: eeae dbbc 73c3 ab3c 3482 46bc fe75 c73c
00000260: d274 aa3c d3cd a0bb 6ed5 0e3d 8dbf b13c
00000270: b865 1dbc 47e5 443b e5e3 07bd d858 9abb
00000280: 2cdc a5bc 57a9 c4bc 8300 023d 1cbe 8b3c
00000290: 56b2 ccbb b0ce d4bb 77de 81bc f25f 153c
000002a0: 09c3 593b a410 233d 4b1e d23c 4519 7ebb
000002b0: 051c b7ba c809 3abd d497 363c 44d3 dbbc
000002c0: 6ca5 b33c 8770 0a3c b4ed 973b f565 e3bc
000002d0: 8b0b 543c 61ba 783c 7991 a43c 89e2 013d
000002e0: d918 44bb 15cb 0dbc c354 d3bc 7eff 8dbc
000002f0: e16c 88bc da8c 15bd d8ea 58bc e5ac bcbc
00000300: a63b 4e3c e9ab b53c b055 3b3c 7104 f2bb
00000310: 9a6e a3bc fe0a 103c 8132 bd3b 465a 0b3d
00000320: 93a5 893c f931 2dbd 7047 2dbc 717b de3b
00000330: f782 afbb 547c 5dbc e29e 1abb cd82 d53c
00000340: 9124 413c 5895 0a3a de13 783c bd26 27bc
00000350: f321 273d 35ba b1b9 af07 01bd 5efc 72bc
00000360: 6da9 be3b 8c01 523b 5c9f 3e3a 576b 08bd
00000370: d77f b13c cf9e 3b3d 502e 703c 0dc9 47bc
00000380: 54dd 29bd aa9d 323d 22e5 83bc 86dd 8ebc
00000390: 9c6e 70b9 8d28 05bd 7292 5e3d 7f6a 3b3d
000003a0: a7a6 f63b a12b ae3c d240 633c 0523 a3bc
000003b0: c7bb 8a3c cf71 44bc a741 c83b 15bb 95bc
000003c0: 0e64 233d 96e6 e03c eb76 c4bc 93b2 563d
000003d0: d416 f3bb 26a4 34bc 9786 d4bc a766 083d
000003e0: 6d87 65bc e1cc ab39 2416 b5bc e160 683c
000003f0: 9006 86ba 33fe dd3c 8248 f3bc 715f b8bc
-0.014111031 0.0059605315 -0.025039632 -0.03558586 -0.025861155 -0.022930752 0.028051075 0.0017700385
0.011850905 0.039850872 0.011882234 0.0037017209 0.015321394 -0.04866114 -0.013082908 -0.04573819
-0.03302916 -0.040521543 -0.0151680885 0.015914198 0.014602333 0.025934577 -0.0115906615 -0.034188077
-0.013157363 -0.052312806 -0.051101077 -0.029621858 0.0054809833 0.028732292 -0.024261802 0.007912514
-0.0164464 -0.014041568 0.009499204 0.020660093 0.0017602821 0.02659615 -0.01963263 0.013233757
-0.005551985 0.014939015 0.017188622 0.044504307 0.012800482 -0.035038937 0.021356601 0.01670356
0.037826046 0.019805707 -0.040987995 0.014279894 -0.0091453185 -0.017071009 -0.026284076 0.0110402815
-0.020001046 -0.003697421 -0.0023230028 0.014537328 -0.038499936 -0.012866391 0.009475752 -0.015242135
0.007642995 -0.03343932 -0.025753114 0.02522643 -0.008691909 0.006076424 0.028394226 0.024735836
0.021315675 0.026438588 -0.014954325 -0.024295457 0.00986601 0.0014401384 0.008260197 -0.019464653
0.042932063 0.030892368 -0.003220981 -0.019376665 -0.004595158 -0.02436689 0.013659594 0.008278344
0.003984597 0.004171147 -0.027446005 0.031287357 -0.023981653 -0.021939551 -0.014359622 -0.024054578
0.00039350305 0.021191305 0.0034141652 0.01397275 0.013406737 -0.045483224 0.03217713 0.025758533
0.03286427 -0.014450364 0.0046858457 0.0067005153 0.007846241 0.008127979 -0.03823552 0.023475803
-0.011989165 -0.0072282963 -0.0019351484 0.03030166 -0.005933931 0.027305689 0.01746464 -0.00043977748
-0.010910346 0.022879126 -0.0029988887 0.028493246 -0.027411407 -0.001645421 -0.03384229 0.039219376
-0.023710638 -0.012052099 0.009484971 0.021713555 0.016604008 0.00040073387 0.0025496741 0.022891585
-0.0051289913 0.003607946 -0.03121229 0.018218875 -0.024832346 -0.013330332 -0.010335113 -0.0177959
-0.028438453 -0.014479777 0.039621606 0.010690485 -0.026816811 0.02096722 -0.012116004 0.024348255
0.020807657 -0.0049073487 0.03487151 0.021697784 -0.009606771 0.0030043887 -0.03317632 -0.004710298
-0.020246588 -0.024006529 0.03173877 0.017058425 -0.0062468452 -0.0064943656 -0.01585315 0.009117113
0.0033227822 0.03981079 0.02564921 -0.0038772386 -0.0013970142 -0.045419484 0.011144597 -0.026834138
0.021929465 0.00844968 0.0046364907 -0.027758578 0.012942205 0.015181155 0.020088898 0.03171018
-0.0029922037 -0.008654376 -0.025797253 -0.017333742 -0.01665348 -0.03651128 -0.013239585 -0.023031661
0.0125874635 0.0221767 0.011434004 -0.0073857834 -0.0199502 0.008791683 0.005773843 0.03402164
0.016802585 -0.042283986 -0.010576114 0.0067896177 -0.0053561884 -0.013518412 -0.0023593237 0.026063347
0.011788503 0.0005286536 0.015141455 -0.010202107 0.04080386 -0.00033898806 -0.03150147 -0.014830677
0.005818537 0.003204438 0.0007271671 -0.033305492 0.021667404 0.04580575 0.014659479 -0.01219393
-0.04147084 0.04360739 -0.01610047 -0.017439615 -0.00022929389 -0.032509375 0.05433888 0.04575586
0.0075271907 0.021261038 0.013870435 -0.01991416 0.016935242 -0.011990025 0.006111342 -0.018277684
0.03989034 0.027453702 -0.023982486 0.052416395 -0.007418493 -0.011025464 -0.025943084 0.033301022
-0.014009339 0.00032768308 -0.022105284 0.014183254 -0.0010225344 0.02709875 -0.02969766 -0.022506448

fc1.bias f4 [32]
00000000: bdd8 ebbc 4257 0ebc 22f6 8839 4239 31bc
00000010: f978 b9bc 807a 00bd 7819 41bc 5a24 843c
00000020: d1f8 0cbc 16f1 0ebc f490 d5bc a7c3 3d3a
00000030: 9a0c bbbb 30b4 b63b 754f ed3c 1d2b e0bc
00000040: 223a 9d3c eafd 48bc 3c67 503c 445f 93bc
00000050: c785 e83b ba0b a4bc 7801 9b3c 2baf b8bb
00000060: 6470 13bc 4ef2 c73c 5406 32bc 06e1 2cbc
00000070: 77a9 f93b 167b 733b f615 b3bc 8990 733c
-0.028789872 -0.008687796 0.00026123325 -0.010816874 -0.022640692 -0.031366825 -0.011785857 0.016130615
-0.008604244 -0.008724472 -0.026070096 0.00072389323 -0.0057082893 0.0055756792 0.028968552 -0.027364308
0.019192759 -0.012267569 0.0127199255 -0.017989762 0.0070960256 -0.020025123 0.018921599 -0.005636116
-0.008998964 0.024407532 -0.010865767 -0.010551697 0.0076190787 0.0037152222 -0.021861058 0.014866003

fc2.weight f4 [10, 32]
00000000: c7a5 03be 9ae4 5fbe 8ce9 51be 0ded 4dbe
00000010: 1fd6 403f 9d8e 7abe b60f debd 8d67 e63d
00000020: efb8 70be b504 013f 0567 9abe ff07 be3e
00000030: 4398 113f 34bf 9dbc f7f2 0ebe f1fd f6bd
00000040: 9b76 703f 8629 0abe 05fc 213e 2621 8abe
00000050: 5aad b5bd c0b9 47be 169f aabd 777b 86be
00000060: 57a8 123f 4808 743e 8fad 5fbe 7158 53be
00000070: e29f 04be d4c5 6f3f 8ca6 9dbe a08b 20be
00000080: e092 87be 7849 323f bb12 073f c620 83be
00000090: 6be7 debd bebd d13d 0c18 083f 7e61 c13d
000000a0: 5256 9a3e 12a8 e83e 7d08 b33e 2421 633f
000000b0: 6ba1 d3bc 7b4e ff3e 8948 053f 8d73 cdbe
000000c0: 1b83 3dbe e5a2 0d3f 14e8 cb3e 689d 14bd
000000d0: 8b17 a9bd 7764 f7be 7a50 99be 0f8f 74be
000000e0: cad1 86be a3c6 8dbe d6a5 213e e68d 223d
000000f0: 19a2 16be 8c31 95be 1ec4 5bbe 866a 6fbe
00000100: 64ec 79bd 7419 c0bd 4826 06be 495e ae3e
00000110: cf08 133e bd99 01be 84b7 27bd 9e5e c5bd
00000120: 4a63 963b 4ef1 98be e66f 4a3e df2c 0f3d
00000130: 2770 14be 3fd7 91bd 9428 1d3f 9217 56be
00000140: c961 513f e9de 0ebe 5b0c 823d d022 573f
00000150: de6e 95be 9732 643d 0cb8 04be 1678 513f
00000160: 6a8e 0ebe cd83 0abe c5c1 58be a40d 9d3e
00000170: 121f 18be c773 11be 7d5a 2cbe 0f85 fc3e
00000180: a285 2bbc 8158 07bd b836 5d3d 19de b1bd
00000190: 57dd 863e f2ca 113d 2571 093e 9350 f63e
000001a0: 32de 3ebe 1d4e 5abe 6bdf 25be 18a5 c63e
000001b0: 09d2 13be 486f 26be d18e 28be 02d8 e03e
000001c0: 5bbb 20be bca9 3e3e f88a fcbd ff3e 49be
000001d0: 999b 4fbc 77a6 be3e 3459 e33e 4581 a93d
000001e0: 9739 35be 67b5 e0bd cd94 903f 19ca 0d3f
000001f0: 3ce4 48be b65f 9ebd 02cc b1bd 4536 75bc
00000200: 6e87 81bd 974f 60be cd3e a3bd 1243 82be
00000210: 1ceb 70be 4f6c fd3e 7847 cf3d aab3 73be
00000220: 8221 07be 08fd 4c3f 71ef b33e 5f7e 99be
00000230: 5b18 b23d cc13 98be 2298 72be 8b61 f93c
00000240: 7e5a a33d f796 09be e2a3 763f 69bd 4a3e
00000250: 4dc4 b3be 499b b93e babe 263c 2522 20bd
00000260: 9753 143f c96f bd3b 2c65 0fbe 3933 1f3f
00000270: 32b7 9dbe 6e2f 36be 3f06 363f c767 c8be
00000280: b17f 60be 1000 093f 48ab bb3e ed92 4fbd
00000290: dd59 6abe 634e 6bbd 967f afbe 0f07 3b3e
000002a0: bdaa 2a3f bfa2 9dbe 8ab7 c0be ac3b 8cbe
000002b0: cdd4 95be d18d c43e ced5 233e 53ab 9f3e
000002c0: 4d32 803e 323a 393f 0ef3 9fbe b5ef 85be
000002d0: 47ee 00be b55a 0e3f c1a2 8ebe 5a7a 25bd
000002e0: 5fd4 61be 26aa 783f d499 e6be ed1c 293f
000002f0: a8aa 33be 88d4 71be 0f16 f53d 1a5c f1bd
00000300: 1792 cb3e 2660 2e3e 9da5 3ebe 1c98 19be
00000310: f3cd 0c3e 82e1 88bd 2fb5 1abd 5cb2 14be
00000320: 6466 adbd 7c86 19be 2586 0dbe 8670 6cbe
00000330: f820 0dbe 5416 c0bd e691 293f bc70 52be
00000340: 5973 c33d fc82 083e 69db 92bd 2514 6b3d
00000350: 5e2a 253f d800 cbbb 988e 60be 8452 86be
00000360: 7949 cf3e 65ca 383e 3923 a63e 9d91 78be
00000370: c0f0 673f 03d4 01be 4f86 203f 4865 debd
00000380: 8969 afbd 11c9 c73d 55bf 48bb 4345 15be
00000390: 3ced 6fbe a5df 713d 4e30 0abd cc15 e6bd
000003a0: 3e30 253e e094 66be 7a24 0fbd 0f87 66be
000003b0: 70fa 4a3f 6f06 673d 7290 88be 71bb 6cbe
000003c0: 2f8d fabd 9707 32be 84ad 0a3e ca97 8cbe
000003d0: 76bc 8e3f 0758 223f 642f 4a3f dfc8 583f
000003e0: 0327 28be a84b 253d aef5 1ebe 0848 91be
000003f0: 39fd bcbd 814a e9bd e9a0 5ebe 3366 18be
-0.12856208 -0.21864548 -0.20499247 -0.20109959 0.7532672 -0.24468465 -0.108428404 0.112502195
-0.23508047 0.5039781 -0.30156723 0.37115476 0.5687296 -0.019256212 -0.13959871 -0.12060154
0.9393098 -0.13492402 0.15818794 -0.26978415 -0.08870955 -0.19504452 -0.083311245 -0.2626607
0.57288116 0.23831284 -0.21843551 -0.20639206 -0.12951615 0.93661237 -0.30791128 -0.15678263
-0.26479244 0.69643354 0.52762955 -0.25610942 -0.10883983 0.102412686 0.5316169 0.09442423
0.30143982 0.45440727 0.34967414 0.88722444 -0.025833806 0.49864563 0.52063805 -0.4012722
-0.18507044 0.5532668 0.398255 -0.036282927 -0.082564436 -0.48318836 -0.2994421 -0.23882698
-0.2633193 -0.2769061 0.15785918 0.039686106 -0.14710273 -0.29139364 -0.21461532 -0.23380479
-0.061016455 -0.09379855 -0.1310054 0.3405631 0.14358829 -0.12656303 -0.0409465 -0.096371874
0.004589473 -0.298716 0.19769248 0.0349549 -0.14495908 -0.07121133 0.6139004 -0.20907429
0.81789833 -0.13952221 0.06350013 0.84037495 -0.29186147 0.05571231 -0.12960833 0.8182386
-0.13921514 -0.1352684 -0.21167667 0.3067447 -0.14855602 -0.14204322 -0.16831394 0.49320266
-0.010468872 -0.03304339 0.054007262 -0.0868494 0.26340744 0.035593934 0.13422067 0.48108348
-0.18639448 -0.2131886 -0.16198508 0.38797832 -0.14435591 -0.16253388 -0.1646073 0.439148
-0.1569647 0.18619436 -0.12331194 -0.19652937 -0.012671375 0.37236378 0.44403994 0.08276609
-0.1769775 -0.109721 1.129541 0.553865 -0.19618315 -0.07733099 -0.086814895 -0.014966552
-0.06324659 -0.21905361 -0.07970963 -0.25441796 -0.23527187 0.49496695 0.101210535 -0.23799005
-0.13196376 0.80073595 0.35143617 -0.29979226 0.08696052 -0.29702604 -0.23690847 0.03044202
0.079762444 -0.13436495 0.96343815 0.19798817 -0.35110703 0.36251286 0.010177309 -0.039095063
0.5794005 0.005781148 -0.14003438 0.62187535 -0.3080383 -0.1779153 0.7110328 -0.39141676
-0.2192371 0.5351572 0.36654115 -0.05067723 -0.22885843 -0.057447802 -0.34277028 0.18264411
0.66666776 -0.30788228 -0.3764003 -0.27389276 -0.29263917 0.38389447 0.15999529 0.31185398
0.25038376 0.72354424 -0.31240124 -0.26159444 -0.12590896 0.5560716 -0.27858546 -0.040399887
-0.2205367 0.97134626 -0.45039237 0.6605976 -0.17545569 -0.2361623 0.11967098 -0.11785145
0.39759895 0.17028865 -0.18617864 -0.14999431 0.13750438 -0.06683637 -0.037770446 -0.14521164
-0.08466795 -0.14992708 -0.13820703 -0.230898 -0.13782108 -0.09379259 0.6623825 -0.20550817
0.09543485 0.13331217 -0.071707554 0.05739226 0.6451777 -0.006195169 -0.21929395 -0.2623483
0.40485743 0.18045957 0.32448748 -0.24274297 0.9060173 -0.12678532 0.6270494 -0.108591616
-0.08565051 0.09755147 -0.003063162 -0.14577202 -0.23430341 0.059051175 -0.033737473 -0.11234626
0.16131684 -0.22517729 -0.034946896 -0.22512458 0.7928839 0.05640262 -0.26672703 -0.23118378
-0.1223396 -0.17385708 0.13542753 -0.27459556 1.1151264 0.6341557 0.7897856 0.84681505
-0.16421132 0.040355355 -0.15523407 -0.28375268 -0.09227986 -0.113911636 -0.2174107 -0.14882736

fc2.bias f4 [10]
00000000: d833 5a3d d061 06be fb8b c83c 8148 683e
00000010: 6248 cd3d 7058 aa3d b6aa b13e 8883 9d3d
00000020: 01f5 8f3e 9eab 11be
0.0532721 -0.1312325 0.02448081 0.22683908 0.100235716 0.08317649 0.34700555 0.07691103
0.2811661 -0.14225623
