Best Model/MyBestSmall.pt (torch_old, 20168 bytes, 18 tensors)

conv1.weight f4 [5, 3, 3, 3]
0	0xbd8ebabb	-0.0696921
1	0x3d3308ec	0.04370968
2	0xbcb79580	-0.022410154
3	0xbdbebbab	-0.093131386
4	0xbdb3665a	-0.087597564
5	0x3d46d578	0.048543423
6	0xbcba08a8	-0.022709206
7	0xbd546484	-0.05185367
8	0xbd66fe98	-0.056395143
9	0x3d192778	0.037391156
10	0xbd612eac	-0.05497615
11	0xbbf39ba0	-0.0074343234
12	0xbcf70090	-0.030151635
13	0xbe13a930	-0.14420009
14	0x3d8f4ba2	0.06996848
15	0xbe2e8c0e	-0.17045614
16	0x3d8f5746	0.06999068
17	0xbe326ed3	-0.17425089
18	0xbbb54d60	-0.0055329055
19	0xbe3acf2e	-0.18243095
20	0xbe3fe9f2	-0.18741587
21	0x3dcd80da	0.10034342
22	0xbe289cc5	-0.16466053
23	0xbe1ca626	-0.15297756
24	0xbd2b1f50	-0.04177791
25	0xbcb3a7a0	-0.021930516
26	0x3d78937c	0.060687527
27	0xbf0edb88	-0.5580373
28	0xbeb0df7f	-0.34545514
29	0x3d57dd71	0.052701417
30	0x3e106b05	0.14103325
31	0xbdc0c645	-0.09412817
32	0x3e473c2b	0.19456546
33	0x3e6a4906	0.22879419
34	0x3f1aabf3	0.60418624
35	0x3f3ee01d	0.7456072
36	0xbe3c5443	-0.18391518
37	0xbe001c3c	-0.1251077
38	0xbd7e56c0	-0.06209445
39	0x3e44a3d4	0.1920312
40	0xbe0882c2	-0.1333113
41	0xbe945328	-0.28969693
42	0xbc33af8c	-0.010967147
43	0x3ebcd606	0.36882037
44	0x3e87d439	0.265291
45	0xbe1a7cb4	-0.15086633
46	0xbd70705b	-0.0587009
47	0xbe74491b	-0.23856013
48	0x3e495bf2	0.1966398
49	0xbe60a910	-0.21939492
50	0x3d1ceee3	0.038313758
51	0x3cfddf2e	0.03099021
52	0x3eb01d2e	0.34397262
53	0x3e6f31cd	0.23358841
54	0xbe0b9a6a	-0.13633123
55	0xbe055f4d	-0.13024636
56	0xbdeeb177	-0.116549425
57	0x3d624e49	0.05525044
58	0x3df31124	0.11868504
59	0x3e59e538	0.21278846
60	0x3c9ee26f	0.019395081
61	0xbde0907b	-0.109650575
62	0xbc33b696	-0.010968825
63	0xbe794a67	-0.24344788
64	0x3d5c2614	0.05374725
65	0x3dcaa369	0.09894449
66	0xbe3601f3	-0.17774181
67	0xbd3f14b9	-0.046650622
68	0x3e09f8e6	0.13473853
69	0xbc9180fe	-0.017761704
70	0xbe2f9591	-0.17146899
71	0xbaad2190	-0.0013208855
72	0x3c66a2d7	0.01407691
73	0x3c1afe8d	0.009460104
74	0x3e7dbfd9	0.24780215
75	0x3dde7668	0.10862428
76	0xbe33a952	-0.1754506
77	0x3e0dfdc7	0.1386634
78	0xbd9e2ba2	-0.07723166
79	0x3d15c158	0.03656134
80	0x3de23603	0.11045458
81	0xbe02484b	-0.1272289
82	0xbe3f3621	-0.18672992
83	0x3dab08df	0.083513014
84	0xbee2fdfc	-0.443344
85	0xbe827c9e	-0.254857
86	0xbee568e4	-0.44806588
87	0x3ee7d0fc	0.4527663
88	0x3ee888cc	0.45416868
89	0x3dc5e34a	0.096624926
90	0xbe0764d9	-0.13222064
91	0xbed017e0	-0.40643215
92	0xbe2e1a0e	-0.17002127
93	0xbe6ecc58	-0.23320138
94	0xbd0c803b	-0.034301978
95	0xbee9428c	-0.45558584
96	0x3ec80ce6	0.3907234
97	0x3ed6b2f2	0.419334
98	0xbd392dea	-0.045209803
99	0x3e5f02e6	0.2177845
100	0xbe8fe754	-0.28106177
101	0x3e841029	0.2579358
102	0xbe5deca5	-0.21672304
103	0x3d8e2d75	0.06942264
104	0xbe1213ba	-0.14265338
105	0x3e9b3da0	0.30320454
106	0x3ea9939e	0.33120435
107	0x3bf439d0	0.007453181
108	0x3e9599f4	0.2921902
109	0x3f048439	0.51764256
110	0x3ed55731	0.41668084
111	0x3e9b8e0b	0.30381808
112	0x3efc5324	0.4928218
113	0x3f18a0e2	0.5962049
114	0xbea4301e	-0.3206796
115	0x3e392a18	0.18082464
116	0x3f1cef87	0.6130299
117	0xbe58e9c0	-0.21182919
118	0xbee2873c	-0.442438
119	0xbe8903d1	-0.26760724
120	0xbeefb9a0	-0.46821308
121	0xbf23715d	-0.63844854
122	0xbda29198	-0.07937926
123	0xbf602619	-0.8755813
124	0xbf459941	-0.7718697
125	0xbe74f5ce	-0.23921892
126	0x3ea3dd98	0.32005
127	0x3da16796	0.078810856
128	0x3d73a464	0.059482947
129	0x3da7dc90	0.08196366
130	0xbd911859	-0.07084722
131	0x3e300d9a	0.17192689
132	0xbe3b77b0	-0.18307376
133	0xbcbd5c32	-0.023115251
134	0x3eb42a6b	0.35188612

conv1.bias f4 [5]
0	0xbd1679b4	-0.03673716
1	0x3e3ce824	0.1844793
2	0x3cf08aab	0.029362997
3	0x3f045512	0.51692307
4	0x3ee5576c	0.4479326

conv2.weight f4 [5, 5, 9, 9]
0	0x3d427d77	0.047482934
1	0xbd3434c6	-0.04399564
2	0x3d04ebdf	0.032451507
3	0x3c9c26b2	0.01906142
4	0x3d20b41d	0.03923427
5	0x3d23d531	0.039998237
6	0x3cdda1b2	0.027054641
7	0xbc657f70	-0.014007434
8	0xbcde8582	-0.02716327
9	0xbc1615dc	-0.009160485
10	0x3c26d1a0	0.010181814
11	0x3ce66cae	0.028127994
12	0xbb2d09d0	-0.0026403554
13	0xbc95935c	-0.018258743
14	0x3d1d2a7f	0.038370606
15	0x3cd2b6ae	0.025721874
16	0xbc0891d8	-0.008335553
17	0x3d461017	0.04835519
18	0x3d0dcac3	0.034617197
19	0xbd382593	-0.04495771
20	0xbd224554	-0.039616898
21	0xbd17b1d1	-0.037034813
22	0xbbfdba40	-0.00774315
23	0xbd4178b5	-0.047234256
24	0x3d3f9195	0.046769697
25	0x3caff162	0.021477405
26	0xbd26ff7a	-0.040770985
27	0x3bfacb10	0.0076536015
28	0x3d26b0eb	0.040696066
29	0x3b94a740	0.0045365393
30	0x3cbf44ea	0.02334829
31	0x3d25145f	0.04030263
32	0xbd2508b2	-0.040291496
33	0x3ba07230	0.0048964247
34	0x3c27c0cc	0.010238837
35	0xbca73533	-0.02041111
36	0x3c8026ba	0.015643466
37	0xbcff1a4e	-0.031140473
38	0x3cc5033a	0.02404939
39	0xbc664374	-0.014054168
40	0xbca77c74	-0.020445086
41	0x3d141981	0.036157135
42	0x3d384bdd	0.044994224
43	0xbceff801	-0.029293062
44	0xbd1f76fb	-0.038931828
45	0x3ca0282e	0.01955041
46	0x3ba28ea0	0.00496085
47	0xbcb48a12	-0.022038493
48	0x3cfd15fa	0.030894268
49	0xbcb12a54	-0.021626629
50	0x3c493d50	0.012282684
51	0x3d3ce2bb	0.046114665
52	0xbc8aaff0	-0.016929597
53	0xbc85831c	-0.01629787
54	0x3cd7e67a	0.026355017
55	0x3d22afd3	0.03971846
56	0x3d17da1d	0.037073243
57	0x3d0eb34b	0.034838956
58	0x3b89eb08	0.004208926
59	0xbd005c90	-0.031338274
60	0xbd1135df	-0.035451766
61	0x3c0ae8e8	0.008478381
62	0x3d302533	0.043004226
63	0xbcd981de	-0.026551183
64	0x3ca2550a	0.01981594
65	0xbcb811da	-0.02246945
66	0x3d2f6157	0.04281744
67	0x3caa8a22	0.02081782
68	0x3bb5f588	0.0055529512
69	0xbc0871d8	-0.008327924
70	0xbc997679	-0.01873325
71	0xbcca8e4b	-0.024726054
72	0xbcb54049	-0.02212538
73	0x3b979a30	0.004626535
74	0xbcbd497e	-0.023106333
75	0x3ce44a8a	0.027867574
76	0xbce53122	-0.02797753
77	0x3c1aed1c	0.009455945
78	0x3ca56f9a	0.020194817
79	0xbaa01a00	-0.001221478
80	0x3c309858	0.010778509
81	0x3ed74dca	0.42051536
82	0x3d6b5e79	0.057463143
83	0xbd206ae2	-0.03916443
84	0x3d051227	0.032488015
85	0xbdb799ff	-0.08964919
86	0xbdb4b558	-0.08823651
87	0xbd5ab886	-0.05339863
88	0xbda01699	-0.0781681
89	0x3d6caf9f	0.057784673
90	0xbdb9e0a9	-0.09076054
91	0xbe548961	-0.20755531
92	0x3d1a28f6	0.03763672
93	0xbe27cce7	-0.16386758
94	0x3e18abea	0.1490933
95	0xbdfedc81	-0.124444015
96	0xbeac0c2d	-0.3360304
97	0xbe0593db	-0.13044684
98	0xbd936436	-0.07196848
99	0xbe31dda7	-0.1736971
100	0xbe39d9e8	-0.18149531
101	0x3d94700e	0.07247935
102	0x3e472df6	0.19451126
103	0x3d9c4a22	0.07631327
104	0x3c9e770e	0.01934388
105	0xbd8a3698	-0.06748694
106	0xbe8902e8	-0.2676003
107	0x3daf5a42	0.08562137
108	0xbddacd59	-0.10683698
109	0x3dd64306	0.104620025
110	0x3beb0618	0.0071723573
111	0x3dce761b	0.100811206
112	0xbdd66f4b	-0.10470446
113	0xbe1ece99	-0.15508498
114	0xbd2d03a8	-0.042239815
115	0x3d4e3e52	0.050352402
116	0x3e1c486b	0.15262
117	0x3e2e74c5	0.17036732
118	0x3e4a4bd0	0.19755483
119	0x3e1826e8	0.14858592
120	0xbdaaa1f9	-0.08331675
121	0xbddecc7a	-0.108788446
122	0x3d8ede5c	0.069760054
123	0x3e253cc8	0.16136467
124	0x3bfd689b	0.007733417
125	0xbe5a2341	-0.21302511
126	0x3ea84f52	0.32873017
127	0xbe563925	-0.20920236
128	0xbdb43683	-0.0879946
129	0x3dfc925a	0.12332602
130	0x3e469257	0.19391762
131	0xbe88bbdd	-0.26705828
132	0xbc22b97f	-0.009931921
133	0x3c3ec910	0.011644617
134	0xbe144fb6	-0.14483532
135	0xbbb09ad2	-0.00538955
136	0xbe1b1966	-0.15146407
137	0x3cb71002	0.0223465
138	0x3e4f864a	0.20266071
139	0x3ce332fa	0.027734268
140	0x3e204fa7	0.15655385
141	0x3e7eab63	0.24870066
142	0xbea64270	-0.32472563
143	0xbe2c6130	-0.16833949
144	0xbd0bc685	-0.03412487
145	0xbda302ef	-0.07959544
146	0xbe2be329	-0.16785873
147	0x3d9b79ef	0.07591616
148	0xbe0e265e	-0.13881823
149	0x3dfd01a7	0.12353831
150	0xbdd46e60	-0.10372615
151	0xbceaa0c6	-0.028641116
152	0xbd95eeeb	-0.073209606
153	0x3def3700	0.11680412
154	0x3cc8b008	0.024498
155	0xbe2a4d9a	-0.16631165
156	0x3e373e31	0.17894818
157	0x3dd90499	0.1059658
158	0x3e9c9d42	0.30588728
159	0xba2df6ce	-0.0006636203
160	0xbcff4b51	-0.031163843
161	0x3cbd0e73	0.023078179
162	0xbd080236	-0.033205234
163	0x3c3865c8	0.011254735
164	0xbd4bc9f4	-0.049753144
165	0x3d4f64de	0.050633304
166	0xbd2cfce8	-0.042233378
167	0xbc9dc8a6	-0.019260716
168	0xbd3a813a	-0.045533396
169	0x3d08de20	0.03341496
170	0xbb3a50c5	-0.002842949
171	0xbd920a85	-0.07130913
172	0x3d32c494	0.043644503
173	0x3cb5d822	0.022197787
174	0xbb0b1f5c	-0.0021228408
175	0x3c38424e	0.011246277
176	0xbcb37511	-0.021906408
177	0x3d136ec2	0.0359943
178	0x3d83d6e5	0.06437472
179	0x3cd58818	0.026065871
180	0x3c46dac5	0.01213712
181	0xbc5644e2	-0.013077946
182	0x3c9c7449	0.019098418
183	0x3d0136ba	0.031546332
184	0x3a8aeea6	0.0010599687
185	0xbc89cae9	-0.016820388
186	0x3c85f8ac	0.016353928
187	0x3d14ce6c	0.03632967
188	0x3cb0ebcd	0.021596814
189	0xbb9295d9	-0.0044734296
190	0xbc25c1e7	-0.010117031
191	0x3d13baaa	0.03606669
192	0x3cfcbfb5	0.030853132
193	0xbc5c9cfe	-0.013465164
194	0x3b79f509	0.0038140437
195	0x3cc0f423	0.023553913
196	0xbd1d23c8	-0.0383642
197	0x3c8b07f8	0.016971573
198	0xbd90f06e	-0.07077108
199	0x3cdb6646	0.026782166
200	0xbc829506	-0.0159402
201	0x3c62e598	0.013848685
202	0x3c99fb55	0.018796602
203	0x3a241cf2	0.00062604167
204	0x3d51170c	0.05104737
205	0xba93c5c0	-0.0011274144
206	0xbc393954	-0.011305172
207	0x3c5a8012	0.013336198
208	0x3bab6001	0.0052299504
209	0x3caa36f2	0.020778153
210	0x3d1a5634	0.037679866
211	0xbd59566d	-0.053060938
212	0x3c4672f0	0.012112364
213	0x3c49e1ed	0.012321931
214	0x3cd017f2	0.025402043
215	0x3d868a49	0.065693446
216	0x3b8103ce	0.003937221
217	0xbd2ecae0	-0.042673945
218	0x3c816fed	0.01580044
219	0x3d0cebef	0.03440469
220	0x3d2d7613	0.042348932
221	0x3c8fed04	0.017569073
222	0x3a9f046f	0.0012132059
223	0xbc87d37c	-0.016580336
224	0x3d2213e5	0.039569754
225	0x3cb508a6	0.02209885
226	0xbc9cb757	-0.019130392
227	0x3d4f8435	0.05066319
228	0x3d198f17	0.037489977
229	0xbd20b4ed	-0.039235044
230	0x3c868d16	0.016424697
231	0xbd5444e9	-0.05182353
232	0x3c9da969	0.01924582
233	0xbd002cae	-0.03129261
234	0x3d36480a	0.044502296
235	0x3ce9dcb2	0.028547619
236	0x3d61ad21	0.05509675
237	0x3a601cbc	0.00085492036
238	0x3cf8baea	0.030362565
239	0x3cd78a6b	0.02631112
240	0xbd8b9e28	-0.06817275
241	0xbd5151be	-0.051103346
242	0xbc4839f2	-0.0122208465
243	0xbd0d9add	-0.034571517
244	0xbe1e4d87	-0.15459262
245	0x3da2a3e4	0.07941416
246	0x3d3903b6	0.045169555
247	0x3d854816	0.0650789
248	0xbd2ffe00	-0.042966843
249	0x3dcaa2d7	0.098943405
250	0xbd9e4ab9	-0.07729096
251	0xbdbe8697	-0.09303015
252	0xbd7bc554	-0.061467484
253	0xbd03d19d	-0.032182325
254	0x3cdf6b80	0.02727294
255	0x3e0833fe	0.13301083

conv2.bias f4 [5]
0	0x3cadee20	0.02123171
1	0xbb5e50d0	-0.003392268
2	0x3ace17dd	0.0015723665
3	0xbb4bc518	-0.0031092819
4	0x3cf91d53	0.03040949

conv3.weight f4 [5, 5, 3, 3]
0	0x3f095904	0.5365145
1	0x3eaa277e	0.33233255
2	0x3d1a2dd9	0.03764138
3	0x3dfa0db7	0.12209647
4	0x3d89c82e	0.06727634
5	0xbdc7d533	-0.097574614
6	0x3d9e4ab5	0.07729093
7	0x3cf53e51	0.029936941
8	0xbe96a614	-0.29423583
9	0xbeacc439	-0.33743456
10	0x3e83f497	0.25772545
11	0x3d78acf6	0.060711823
12	0xbe2026c5	-0.1563979
13	0x3ead4da4	0.33848298
14	0x3e5bc265	0.21460874
15	0xbe23eb98	-0.1600784
16	0x3d7e1ad8	0.06203732
17	0x3cc4f5c8	0.024042979
18	0x3c0010e9	0.007816532
19	0x3d97f65d	0.07420037
20	0xbdb4a262	-0.088200346
21	0x3d90fbf2	0.07079305
22	0x3ef75e45	0.4831411
23	0x3e45cfed	0.19317599
24	0xbc047c5c	-0.00808629
25	0xbe6f6b26	-0.23380718
26	0xbdae0703	-0.08497431
27	0xbea8f188	-0.32996774
28	0x39b5aa08	0.00034649693
29	0x3f0ffba4	0.5624335
30	0x3c57369e	0.01313558
31	0xbe7fd01b	-0.2498173
32	0x3cc1b052	0.023643646
33	0x3d91b055	0.07113711
34	0x3e4765db	0.19472449
35	0xbda8736a	-0.082251385
36	0xbec47b55	-0.38375345
37	0xbe80e034	-0.25171053
38	0x3de4ef6f	0.11178481
39	0xbdfd5922	-0.12370516
40	0xbdd7aeed	-0.10531411
41	0xbe2f4278	-0.171152
42	0xbd3effc8	-0.04663065
43	0x3dc0755b	0.09397384
44	0xbdc02c36	-0.093834326
45	0xbf1b4980	-0.6065903
46	0xbd8f42bc	-0.069951504
47	0xbf02af95	-0.51049167
48	0xbd461ab1	-0.0483653
49	0xbe05a3cb	-0.13050763
50	0xbe985eb8	-0.29759765
51	0xbdddced3	-0.10830464
52	0x3ef756d3	0.4830843
53	0xbe14f390	-0.14546037
54	0xbb5d9ce1	-0.003381543
55	0x3f03bbec	0.5145862
56	0xbd9a9291	-0.075474866
57	0xbede892b	-0.43464026
58	0xbd90a87b	-0.07063385
59	0x3ec6080e	0.3867802
60	0x3e83402f	0.25634906
61	0xbc722d85	-0.0147813605
62	0xbe40af6d	-0.1881692
63	0xbe749bf9	-0.23887624
64	0xbe33c285	-0.17554672
65	0xbf040201	-0.5156556
66	0xbd257046	-0.040390275
67	0x3ea3e721	0.32012275
68	0xbeab33d2	-0.33437973
69	0xbe2d3950	-0.16916394
70	0x3d1afa07	0.0378361
71	0x3e76666e	0.24062511
72	0xbe36b690	-0.1784308
73	0x3e0f36f4	0.13985807
74	0x3f055f5a	0.5209862
75	0xbead8594	-0.33890975
76	0xbef2913c	-0.4737643
77	0xbe2b8754	-0.16750842
78	0xbc09fd81	-0.008422256
79	0xbe9fbbd5	-0.31197992
80	0xbe10f486	-0.14155778
81	0xbeb10d02	-0.34580237
82	0x3d8ad257	0.067784004
83	0x3e16d752	0.14730576
84	0xbe4afb00	-0.19822311
85	0xbe8511cd	-0.25990143
86	0x3e3b7736	0.18307194
87	0x3eea91a0	0.45814228
88	0x3d868095	0.06567494
89	0x3de15188	0.11001879
90	0xbe9c19e2	-0.30488497
91	0x3dec0afa	0.11525531
92	0x3e29d0b1	0.16583516
93	0x3d23cefb	0.039992314
94	0x3e4b2c34	0.19841081
95	0x3e65aec8	0.22429955
96	0x3e2dd230	0.16974711
97	0x3c7bce2c	0.015368979
98	0x3c7acf2f	0.0153081855
99	0x3eabcc93	0.33554515
100	0xbd5f597b	-0.054528695
101	0x3e5c0567	0.21486436
102	0x3db418c3	0.087937854
103	0xbe2c1f8b	-0.16808908
104	0xbd329f4e	-0.043608956
105	0xbdba51c2	-0.09097625
106	0x3e80b552	0.25138336
107	0xbf38dfe9	-0.7221666
108	0xbccd9a33	-0.025097942
109	0x3e2dd767	0.169767
110	0xbe50059a	-0.20314637
111	0x3d3cf48d	0.04613166
112	0xbe9e2c2d	-0.30893078
113	0xbde8902c	-0.113556236
114	0x3e1e2a0c	0.15445727
115	0xbebbd9b2	-0.36689526
116	0x3ee6ae0e	0.45054668
117	0xbe911177	-0.28333637
118	0xbdc7065d	-0.097180106
119	0xbe059d1d	-0.13048215
120	0xbdde1e88	-0.10845667
121	0x3e77dfe2	0.24206498
122	0xbe8d3e06	-0.27586383
123	0xbd4913e0	-0.04909122
124	0x3edc4768	0.4302323
125	0xbe8cbf04	-0.27489483
126	0x3d2445ae	0.040105514
127	0x3d0adcac	0.033901855
128	0xbee53c8d	-0.4477276
129	0x3e0e2081	0.13879587
130	0x3da00d8e	0.07815085
131	0xbf3af538	-0.73030424
132	0x3e447b14	0.19187576
133	0xbd6ce957	-0.057839718
134	0xbd85e970	-0.06538665
135	0x3e94ba3c	0.29048336
136	0x3e925fde	0.28588766
137	0xbf0b74f2	-0.5447532
138	0x3eb0b664	0.34514153
139	0x3d7a9a84	0.061182514
140	0xbd3299ec	-0.043603823
141	0x3f02ace8	0.51045084
142	0xbec56ecf	-0.38561103
143	0xbda85e71	-0.08221138
144	0x3e307697	0.17232738
145	0xbe2eb3f2	-0.17060831
146	0xbeebc8ca	-0.46051627
147	0xbeaff3e9	-0.34365776
148	0xbe458353	-0.19288377
149	0xbdfef70b	-0.124494635
150	0xbe83b59a	-0.25724488
151	0xbd139617	-0.03603181
152	0x3c986f3e	0.018607732
153	0x3e46fbeb	0.19432037
154	0x3d9b5537	0.07584613
155	0xbef024a7	-0.46902964
156	0x3e382d26	0.17985973
157	0xbf0ce6ac	-0.5503948
158	0xbef1498b	-0.4712642
159	0x3dec5260	0.11539149
160	0x3e89c1f3	0.26905784
161	0x3d566ca4	0.0523497
162	0xbd2be56b	-0.041966837
163	0x3e90c2db	0.28273663
164	0x3d4b572e	0.049643688
165	0xbd8c8b8d	-0.06862555
166	0xbcea6d0a	-0.028616447
167	0xbe741270	-0.23835158
168	0x3e39332e	0.1808593
169	0xbe2474bd	-0.16060157
170	0xbe8d3514	-0.27579558
171	0x3e65bf79	0.22436322
172	0xbee71a5e	-0.45137304
173	0x3eef0d80	0.46689987
174	0xbe039abb	-0.12851994
175	0x3b897d4a	0.004195844
176	0xbe188161	-0.14893104
177	0xbe09b51d	-0.13447995
178	0xbed14768	-0.4087479
179	0xbe8294e4	-0.2550422
180	0xbe3ec0c9	-0.18628229
181	0x3e0edfd5	0.13952573
182	0xbebba771	-0.36651185
183	0x3ce31336	0.027719121
184	0x3c8be251	0.01707569
185	0x3ea6ec1b	0.3260201
186	0xbe13a5a9	-0.14418663
187	0xbc1bf7b6	-0.009519508
188	0x3e9d2677	0.3069341
189	0xbecec32a	-0.40383273
190	0xbec7b3cd	-0.39004365
191	0x3e22827e	0.15870091
192	0xbeaac546	-0.33353633
193	0x3e4ad84e	0.19809076
194	0x3eb2686c	0.34845293
195	0x3ed811aa	0.42200977
196	0xbdb45686	-0.088055655
197	0x3dea677b	0.114455186
198	0xbe45263a	-0.19252864
199	0xbe9b7e78	-0.30369925
200	0x3ccefd5e	0.0252673
201	0xbcab57f1	-0.020915957
202	0xbf3351a4	-0.7004645
203	0xbe62215a	-0.22083035
204	0x3e2db4dd	0.16963525
205	0x3ea00a55	0.31257883
206	0xbe94894b	-0.29010996
207	0xbecf835d	-0.4052991
208	0xbeec6391	-0.46169713
209	0xbf00393f	-0.5008735
210	0xbd08014b	-0.033204358
211	0xbe983e2c	-0.29734933
212	0x3d70d356	0.058795296
213	0x3e9a20ac	0.30103052
214	0x3ea1b69c	0.31584632
215	0x3e6e4e8f	0.23272155
216	0xbdedc8f8	-0.11610597
217	0xbef4ca12	-0.47810417
218	0xbe5b81c0	-0.21436214
219	0x3e0ac848	0.13552964
220	0x3dd228df	0.10261702
221	0x3de1f589	0.1103316
222	0x3e56da38	0.20981681
223	0xbe452df6	-0.19255814
224	0xbcaa63be	-0.020799514

conv3.bias f4 [5]
0	0xbdf8c43d	-0.121468045
1	0x3ebe461a	0.37162858
2	0x3d6dcd00	0.05805683
3	0x3ed37012	0.4129644
4	0xbe0493da	-0.12947026

conv2_bn.weight f4 [5]
0	0x3f738d3d	0.9513739
1	0x3f680793	0.9063656
2	0x3f97a703	1.1847843
3	0x3f8bad3e	1.0912244
4	0x3f7630dd	0.9616831

conv2_bn.bias f4 [5]
0	0xbe1a3f8a	-0.150633
1	0xbe9aaf7c	-0.3021201
2	0xbe2205ac	-0.15822476
3	0xbcb28948	-0.021793976
4	0xbf264949	-0.64955574

conv2_bn.running_mean f4 [5]
0	0x3ec70b82	0.38875967
1	0xbf847603	-1.0348514
2	0xc00fbedb	-2.246024
3	0xbf8ffad0	-1.1248417
4	0x3f6e031e	0.92973506

conv2_bn.running_var f4 [5]
0	0x3f3ca287	0.736855
1	0x3ee20897	0.4414718
2	0x3f3e6f78	0.7438884
3	0x3f11acf6	0.5690454
4	0x3f0f8fca	0.5607878

fc1_bn.weight f4 [32]
0	0x3fd7fa44	1.687325
1	0x3fd1b6a2	1.638386
2	0x3fd695f4	1.6764512
3	0x3fcd06eb	1.6017736
4	0x3fee20e1	1.8603784
5	0x3fe5ddaf	1.7958277
6	0x3fcc6046	1.596688
7	0x3fc3effa	1.530761
8	0x3fd85e70	1.690382
9	0x3fb44de5	1.4086272
10	0x3fe28e33	1.7699646
11	0x3fb927f2	1.4465315
12	0x3fdbeb50	1.7181187
13	0x3fc38655	1.527537
14	0x4004a13a	2.0723405
15	0x3fca5f4c	1.5810332
16	0x3ffd14c5	1.9771963
17	0x3fb0f066	1.3823364
18	0x3fcb6ed0	1.5893192
19	0x3fba5e79	1.4560081
20	0x3ff59dd2	1.9188788
21	0x3ffbfc6b	1.9686407
22	0x3fc9708f	1.5737475
23	0x3ffdc93b	1.9827036
24	0x4002010c	2.031314
25	0x4003b1b7	2.0577219
26	0x3fd24973	1.6428665
27	0x3fb9a36d	1.4502999
28	0x3fda953e	1.7076795
29	0x3fbff533	1.4996704
30	0x3fde0295	1.7344538
31	0x3fbceb51	1.4759313

fc1_bn.bias f4 [32]
0	0x3e7d399f	0.24729012
1	0x3eb5755e	0.35441107
2	0x3e4d4257	0.20044838
3	0x3ecd2c0a	0.40072662
4	0x3f0bbe91	0.54587656
5	0x3ed939ef	0.42427012
6	0x3e815135	0.2525727
7	0x3eca9aa8	0.39571118
8	0x3e4d36e8	0.20040476
9	0x3e898089	0.26855877
10	0x3eb16db2	0.34654003
11	0x3e680934	0.2265976
12	0x3e8995c7	0.26872084
13	0x3e89ad78	0.2689016
14	0x3ebed620	0.3727274
15	0x3e82a67d	0.25517645
16	0x3ec64e90	0.38731813
17	0x3e064620	0.13112688
18	0x3e8f824d	0.280291
19	0x3e55f6ea	0.20894971
20	0x3e87918f	0.2647824
21	0x3ec2f561	0.38077834
22	0x3ed6ef7b	0.41979584
23	0x3eabc72d	0.33550397
24	0x3f07e2e6	0.53080595
25	0x3ec93596	0.39298695
26	0x3eb5026d	0.35353413
27	0x3e8395c3	0.25700197
28	0x3eba4302	0.36379248
29	0x3ecafa3c	0.3964404
30	0x3ed1b940	0.40961647
31	0x3e02e8db	0.1278414

fc1_bn.running_mean f4 [32]
0	0xbe1dfbc4	-0.15428072
1	0xbeb989eb	-0.36238036
2	0xbeff3b62	-0.49849993
3	0xbe75b0e9	-0.23993267
4	0xbebdd4bd	-0.3707637
5	0xbf220bb7	-0.63299125
6	0xbdc559ce	-0.096362695
7	0xbd6a2ece	-0.057173543
8	0xbd94bddd	-0.07262776
9	0xbd284bda	-0.041087963
10	0x3e1d7b37	0.15379034
11	0xbe886f1e	-0.26647276
12	0xbf52939b	-0.8225648
13	0x3e93f510	0.28897905
14	0xbf5d2181	-0.8637925
15	0x3eb92822	0.3616343
16	0xbeb09fff	-0.34497067
17	0xbb9ab1e1	-0.004720912
18	0xbeb48bfd	-0.35263053
19	0xbf01164c	-0.5042465
20	0xbea58b05	-0.32332626
21	0x3d3efed9	0.04662976
22	0xbea9217f	-0.33033368
23	0x3f72e084	0.94873834
24	0xbeba56ca	-0.3639434
25	0xbcdab279	-0.02669643
26	0x3e819c42	0.25314528
27	0x3e1bc6db	0.15212576
28	0x3e80916b	0.25110945
29	0x3ea5e265	0.32399288
30	0x3e0d4f94	0.13799888
31	0x3ed20332	0.41018063

fc1_bn.running_var f4 [32]
0	0x3e248710	0.16067147
1	0x3e25cbbc	0.16191
2	0x3e0b29b2	0.13590124
3	0x3e1f42f1	0.1555288
4	0x3e29d32f	0.16584466
5	0x3e6e9577	0.23299204
6	0x3e3a7388	0.18208134
7	0x3e0b7110	0.13617349
8	0x3e37d239	0.17951287
9	0x3e1d5fe6	0.15368614
10	0x3e69df0e	0.22838995
11	0x3e3d2170	0.18469787
12	0x3e3c3521	0.18379642
13	0x3e1b48a7	0.15164433
14	0x3e650088	0.22363484
15	0x3e72a000	0.23693848
16	0x3e6805a4	0.22658402
17	0x3dd0c21f	0.10193276
18	0x3e0f75bc	0.14009756
19	0x3e34f594	0.17671806
20	0x3e6839b3	0.2267826
21	0x3e46cc28	0.19413817
22	0x3e2b37e4	0.1672054
23	0x3ecec906	0.40387744
24	0x3e5a36d7	0.21309982
25	0x3e734329	0.23756088
26	0x3e2e05d4	0.16994411
27	0x3e32d243	0.17463021
28	0x3e128e99	0.14312209
29	0x3e217b37	0.15769659
30	0x3e14e8ab	0.14541881
31	0x3e2a873f	0.16653155

fc1.weight f4 [32, 45]
0	0x3d4497d4	0.047996357
1	0xbd800912	-0.0625173
2	0xbd952363	-0.0728214
3	0xbc5db5fc	-0.013532158
4	0x3ce0eaca	0.027455706
5	0x3c1008ba	0.008791143
6	0xbda7b597	-0.081889324
7	0x3dd4ee82	0.10397054
8	0x3d35beea	0.044371523
9	0xbdf7e5f7	-0.12104409
10	0xbe257bd4	-0.16160518
11	0xbe347d92	-0.17626026
12	0xbda6b23e	-0.08139466
13	0xbcb1ae6a	-0.021689612
14	0xbdf0022f	-0.117191665
15	0x3dd67efb	0.10473438
16	0xbe0bc42d	-0.13649054
17	0xbe28ee79	-0.1649722
18	0xbdc8bd32	-0.09801711
19	0xbe7965ac	-0.24355191
20	0x3d0899c6	0.033349775
21	0x3e270047	0.163087
22	0x3e0b7528	0.1361891
23	0xbd74966f	-0.059713777
24	0x3e1bb7fb	0.15206902
25	0x3e01654a	0.12636295
26	0x3c0d6e41	0.008632244
27	0xbda73faa	-0.0816644
28	0x3d760de7	0.060071852
29	0x3e0ac0ab	0.1355006
30	0xbe139eb5	-0.1441601
31	0xbdee3e59	-0.116329856
32	0xbe5e59b5	-0.21713908
33	0x3e28d1a5	0.16486223
34	0xbdefce2e	-0.117092475
35	0xbd803c83	-0.06261542
36	0x3e4e5807	0.20150767
37	0xbd88a557	-0.06672161
38	0x3c8ab65f	0.016932664
39	0x3e4fb0a1	0.20282222
40	0x3d90915f	0.07058977
41	0xbd486a92	-0.04892976
42	0x3d85f9be	0.06541775
43	0xbdbea3c7	-0.09308582
44	0xbda813a9	-0.08206875
45	0xbde65a3e	-0.11247681
46	0xbe21bacd	-0.15793915
47	0xbe7338f0	-0.23752189
48	0xbdb84e17	-0.089992695
49	0x3e042375	0.12904151
50	0xbd7a43fe	-0.0611
51	0xbd7e501d	-0.06208812
52	0x3d8d306a	0.06894
53	0xbe0233b9	-0.12715043
54	0x3e2beb26	0.16788921
55	0xbe0ac048	-0.13549912
56	0xbd3b11ae	-0.045671158
57	0x3dafb865	0.08580092
58	0xbde9e93f	-0.11421441
59	0x3e1073dd	0.14106698
60	0xbd239a7d	-0.039942253
61	0xbdcfe4cf	-0.10151064
62	0x3c1b3d48	0.00947506
63	0xbda881a5	-0.08227853
64	0x3daa1f1a	0.083067134
65	0x3dccc57a	0.09998603
66	0x3dcc10ab	0.09964117
67	0x3cbe91e6	0.02326293
68	0x3e2ebe2f	0.17064737
69	0x3e0efe6b	0.1396424
70	0x3cb05695	0.02152566
71	0xbdac10d9	-0.08401651
72	0x3c44e6b0	0.012017891
73	0x3d491d81	0.049100403
74	0xbd9aaeda	-0.075528815
75	0xbe2c753e	-0.168416
76	0xbc9bb5f6	-0.019007664
77	0xbca1c89f	-0.019748984
78	0xbdd0966b	-0.1018494
79	0x3bcad84d	0.006190336
80	0x3d04e3c4	0.032443777
81	0xbe1e7e00	-0.15477753
82	0x3e770db4	0.24126321
83	0xbd326404	-0.043552414
84	0xbcdacc66	-0.026708793
85	0xbce534cb	-0.027979275
86	0xbdab3a45	-0.083607234
87	0x3e6ba38c	0.23011607
88	0xbdeb7660	-0.114971876
89	0xbe069cb4	-0.13145715
90	0xbd388aab	-0.04505412
91	0xbb01c148	-0.0019799042
92	0xbdfd2ba2	-0.12361838
93	0x3de62873	0.11238184
94	0xbcdc5534	-0.026896097
95	0xbdc04cba	-0.093896344
96	0x3c59ba85	0.013289099
97	0xbd059ed7	-0.032622185
98	0xbd695073	-0.056961488
99	0x3d63040d	0.055423785
100	0xbe11478d	-0.1418745
101	0xbd5df327	-0.054186966
102	0xbdb084fa	-0.08619113
103	0xbe95a56d	-0.29227772
104	0x3e242eb8	0.16033447
105	0x3df6a3df	0.12042975
106	0xbd9bc3c9	-0.076057024
107	0xbe01d145	-0.12677486
108	0xbd4d2cdb	-0.050091606
109	0x3d0d2041	0.034454588
110	0x3e0d4f7d	0.13799854
111	0x3d74ba2f	0.05974787
112	0x3c563f77	0.013076655
113	0xbd16346d	-0.03667109
114	0x3d3e17c6	0.04640939
115	0xbd9702b7	-0.07373565
116	0xbe300aef	-0.17191671
117	0x39618f7e	0.00021511127
118	0x3d333cdd	0.043759216
119	0xbe9071a4	-0.282117
120	0x3db5fe30	0.08886373
121	0x3d3a78b9	0.045525286
122	0x3d7e953b	0.062154036
123	0xbe1dcb64	-0.15409619
124	0xbd3d7c60	-0.04626119
125	0xbc895616	-0.016764682
126	0xbd740c29	-0.05958191
127	0xbd63aeec	-0.05558674
128	0xbdfc22e2	-0.12311341
129	0x3d6ca695	0.057776053
130	0xbdda3444	-0.106545
131	0x3d928c19	0.07155628
132	0x3d67a2d1	0.05655176
133	0xbd8f3cdb	-0.06994029
134	0x3e9e74b1	0.30948403
135	0xbd760486	-0.060062908
136	0x3d0f5e76	0.035002194
137	0xbe0ed55d	-0.13948579
138	0xbdda94a8	-0.10672885
139	0x3bf8450c	0.0075765904
140	0xbe123cca	-0.14281002
141	0x3da23141	0.07919551
142	0x3c9f57ea	0.0194511
143	0x3bb875de	0.0056292852
144	0x3dc2eafb	0.09517475
145	0xbd497b4e	-0.04918986
146	0xbe151c59	-0.14561595
147	0xbdf57a52	-0.119862214
148	0x3da3ad5d	0.07992051
149	0xbb8f90e6	-0.004381287
150	0xbd9a5943	-0.075365566
151	0x3da13855	0.078720726
152	0x3d56e96e	0.05246871
153	0x3d372e52	0.04472191
154	0xbe0d320e	-0.13788626
155	0xbdf833bc	-0.121192425
156	0xbd34caed	-0.044138838
157	0xbdc76d22	-0.09737612
158	0xbde6fd70	-0.11278808
159	0xbcdfe340	-0.027330041
160	0x3d51d837	0.05123159
161	0x3e26afe8	0.1627804
162	0x3d6e883d	0.058235396
163	0x3c50889c	0.012727883
164	0x3d3d9538	0.046284884
165	0x3dc9c384	0.09851745
166	0x3de30ce5	0.11086444
167	0x3d8be55e	0.06830858
168	0xbe062f9a	-0.13104096
169	0xbe0a069f	-0.13479088
170	0x3d0d26c6	0.034460805
171	0x3db8d6b8	0.09025329
172	0xbdda63a4	-0.10663536
173	0xbd87a0a9	-0.0662244
174	0xbe44b078	-0.19207942
175	0x3de15e08	0.11004263
176	0xbe1a8e95	-0.15093453
177	0x3cc5270c	0.02406647
178	0xbde7d746	-0.11320357
179	0xbe70c23f	-0.23511599
180	0x3da9fc04	0.08300021
181	0x3cdfaf3a	0.027305234
182	0x3e47cd3d	0.19511886
183	0x3d9e59c6	0.07731967
184	0xbd807373	-0.0627202
185	0xbd700242	-0.058595903
186	0xbe41da25	-0.18930872
187	0x3da92e52	0.08260788
188	0x3d8aa449	0.06769616
189	0xbd7e8908	-0.062142402
190	0xbd0d3426	-0.03447356
191	0x3e1ecc1e	0.15507552
192	0x3d761eb0	0.06008786
193	0xbe67f4d0	-0.22651982
194	0x3e1db15a	0.15399686
195	0x3dc3504a	0.09536798
196	0xbd4939c9	-0.049127374
197	0x3d784fae	0.060622863
198	0xbde36a38	-0.11104244
199	0x38f1f5e0	0.00011537573
200	0x3e1b2ca3	0.15153746
201	0x3ca6de17	0.020369573
202	0xbd87802e	-0.06616245
203	0xbdc61e17	-0.09673708
204	0x3c85b2de	0.016320642
205	0xbe3ac759	-0.18240108
206	0xbea81b6f	-0.3283343
207	0xbc529b25	-0.012854372
208	0x3e17f309	0.14838804
209	0xbe4895ff	-0.19588469
210	0x3e0f4b30	0.13993526
211	0xbdf2d88d	-0.1185771
212	0xbb854c43	-0.004067929
213	0xbd10ca66	-0.035349272
214	0x3dc11e6e	0.09429632
215	0xbd1ee9d4	-0.038797215
216	0xbe231126	-0.1592451
217	0xbd42c682	-0.047552593
218	0x3e05f213	0.13080625
219	0x3e1ac9d9	0.15116061
220	0xbd78cae9	-0.060740385
221	0x3e5c736c	0.21528405
222	0xbd2ed3eb	-0.04268257
223	0x3e06335a	0.13105527
224	0x3e67320e	0.22577688
225	0x3db9f907	0.09080701
226	0xbd96d6ae	-0.07365166
227	0xbe31f71c	-0.17379421
228	0x3d553fd2	0.052062817
229	0xbd6fa747	-0.058509137
230	0xbdefc5df	-0.11707663
231	0x3e1978ea	0.14987531
232	0x3c737962	0.014860483
233	0x3b9e83a2	0.004837469
234	0xbd71ef4e	-0.05906611
235	0xbe757be2	-0.23973039
236	0xbe6e5390	-0.23274064
237	0xbde445f1	-0.11146153
238	0xbe9c7b56	-0.30562848
239	0xbdb9507a	-0.09048553
240	0x3cd6a058	0.026199505
241	0xba66848d	-0.00087935553
242	0xbe5a90de	-0.21344325
243	0xbdb3ef56	-0.08785884
244	0xbd878523	-0.06617191
245	0x3dd5ac1f	0.1043322
246	0x3e131f5d	0.14367433
247	0xbd373eca	-0.044737615
248	0xbd4ab48d	-0.049488593
249	0xbc596119	-0.013267779
250	0xbd3d77e6	-0.046256922
251	0x3c8bdadf	0.01707214
252	0x3d983431	0.0743183
253	0x3e0bcddc	0.13652748
254	0xbd4e3ffb	-0.050353985
255	0x3d36eaad	0.044657398

fc1.bias f4 [32]
0	0x3d195aa0	0.037439942
1	0xbde50cfb	-0.111841165
2	0x3d62bc3e	0.055355303
3	0x3e000f7f	0.12505911
4	0xbdf39536	-0.11893694
5	0xbe07c6a5	-0.1325937
6	0x3e0b9127	0.1362959
7	0xbd5876d6	-0.052847706
8	0xba7aea7b	-0.00095716835
9	0xbe076f04	-0.13225943
10	0x3dfc8a6a	0.12331088
11	0x3da1710c	0.0788289
12	0xbdb9911e	-0.09060882
13	0xbda924d8	-0.082589805
14	0x3de56c89	0.11202342
15	0x3d8cfbe6	0.06883983
16	0x3deab976	0.11461155
17	0x3d4ffec4	0.050780073
18	0x3dc18f88	0.094512045
19	0xbc98f81f	-0.018673
20	0xbe1474c1	-0.14497663
21	0x3c5ecfd6	0.013599357
22	0xbdef3afc	-0.11681172
23	0x3de3bf4a	0.1112047
24	0x3d1fa579	0.038976166
25	0xbdc665f2	-0.09687413
26	0x3e07417d	0.13208576
27	0x3dee8772	0.11646928
28	0x3d15df30	0.0365898
29	0xbdacd84d	-0.084396936
30	0x3e122d87	0.1427518
31	0xbdfee6d2	-0.12446369

fc2.weight f4 [10, 32]
0	0x3f92bd9f	1.1464118
1	0x3f6ada5f	0.9173946
2	0xbe2ed383	-0.17072873
3	0xbe4b1ace	-0.19834444
4	0xbe6fccfc	-0.23418039
5	0xbe65ae78	-0.22429836
6	0x3d527179	0.051377747
7	0x3f2433a8	0.6414132
8	0x3f928f94	1.1450067
9	0xbe4e7f08	-0.20165646
10	0xbeb4c07e	-0.3530311
11	0x3f03a1e3	0.51418895
12	0x3f92ab2b	1.1458486
13	0xbe60dbd5	-0.2195886
14	0xbeadeb9b	-0.33968815
15	0x3e125b16	0.14292559
16	0xbe54928c	-0.20759028
17	0x3d3b34cf	0.04570466
18	0xbe44f9f2	-0.19235972
19	0xbe8106a6	-0.25200385
20	0xbe2e9792	-0.17050007
21	0xbd31c705	-0.04340269
22	0x3e833290	0.25624514
23	0xbe256ba3	-0.16154341
24	0xbce108e5	-0.027470062
25	0xbea8215a	-0.32837945
26	0xbec76547	-0.38944456
27	0xbec7b5b4	-0.39005816
28	0xbbc49b18	-0.005999934
29	0xbe85a220	-0.26100254
30	0x3ec8cf2f	0.3922057
31	0x3e145a9a	0.14487687
32	0x3eda3fdd	0.4262685
33	0xbe8169b7	-0.25275967
34	0xbe894daa	-0.26817065
35	0x3f0e1d12	0.5551311
36	0xbf20e2e8	-0.6284623
37	0x3f608161	0.87697417
38	0x3e2e13ed	0.16999789
39	0xbe7db8f4	-0.24777585
40	0xbed716f6	-0.42009705
41	0xbdc14486	-0.09436898
42	0x3ddd35d2	0.10801281
43	0xbe41e2c6	-0.18934163
44	0xbe4a85a9	-0.1977755
45	0xbe820ab7	-0.253988
46	0xbeced91a	-0.4040001
47	0xbd6da362	-0.058017142
48	0x3fc78577	1.5587605
49	0x3c39c7c7	0.011339135
50	0xbf029b5b	-0.51018304
51	0x3e5cb71c	0.21554226
52	0xbe102cae	-0.14079544
53	0xbf0dd990	-0.554101
54	0x3f0e2209	0.55520684
55	0xbe1b8ca8	-0.15190375
56	0xbe96505c	-0.29358184
57	0xbe02e25b	-0.1278166
58	0x3ea2454b	0.3169349
59	0x3b2cb32f	0.002635192
60	0xbef047e9	-0.46929863
61	0x3f003101	0.50074774
62	0x3f7aafae	0.97924316
63	0xbe96246e	-0.2932467
64	0xbe6c947a	-0.23103514
65	0xbe03ab6d	-0.12858362
66	0x3e0d94ff	0.13826369
67	0xbed47df4	-0.41502345
68	0x3f5a435f	0.8525905
69	0xbe9ceadd	-0.30647936
70	0x3c14c95d	0.009081212
71	0xbe1e24e9	-0.15443768
72	0x3d98daf1	0.07463635
73	0xbe799121	-0.24371769
74	0x3db1d33c	0.08682868
75	0x3e0f88f7	0.14017092
76	0x3cc11749	0.023570674
77	0x3d4e5c85	0.050381202
78	0xbe4b46fb	-0.19851296
79	0xbdcdbcb4	-0.10045758
80	0xbeb10cdb	-0.3458012
81	0xbd8ab0fc	-0.06772038
82	0xbe07910f	-0.13238929
83	0x3f698718	0.9122176
84	0xbe52569e	-0.20540854
85	0xbed20b75	-0.41024366
86	0x3ed8475b	0.4224194
87	0xbe12ccc6	-0.14335927
88	0x3f03a3dc	0.51421905
89	0x3fad8ee9	1.3559238
90	0xbe8cd6d3	-0.27507648
91	0xbe18cae3	-0.14921145
92	0x3dbc59de	0.09196828
93	0xbde2a86a	-0.11067279
94	0x3f5d3e2a	0.8642298
95	0xbe4d11cb	-0.20026319
96	0xbcea73fd	-0.02861976
97	0x3af609ee	0.001877127
98	0xbeb2a23f	-0.3488941
99	0x3f177b11	0.5917216
100	0xbf153e12	-0.58297837
101	0xbe563af2	-0.20920923
102	0x3f5d419b	0.8642823
103	0xbef047ca	-0.4692977
104	0x3ea857df	0.3287954
105	0x3f0f66a4	0.5601599
106	0xbf0f37d6	-0.55944574
107	0xbd600465	-0.05469169
108	0xbee9f334	-0.45693362
109	0x3e82e935	0.25568548
110	0x3e2897be	0.16464135
111	0xbec05270	-0.37562895
112	0xbe5c7adb	-0.2153124
113	0x3f4cf609	0.8006292
114	0xbe871554	-0.2638346
115	0x3e8b5ebb	0.2722071
116	0x3f630c33	0.8869049
117	0x3f7a9785	0.9788745
118	0xbebebae7	-0.3725197
119	0xbeec1535	-0.4610993
120	0xbeede489	-0.4646342
121	0x3f6a4885	0.91516906
122	0xbee828e6	-0.45343703
123	0xbe8ad9a5	-0.27119175
124	0x3f3b0b9d	0.73064595
125	0x3eee2336	0.4651124
126	0xbe4ae1cb	-0.19812696
127	0xbe85345a	-0.26016504
128	0xbedad93d	-0.42743865
129	0x3f59afcd	0.85033876
130	0xbdcbc6f9	-0.099500604
131	0x3e0f6264	0.14002377
132	0xbcb13a66	-0.021634292
133	0xbe9c7713	-0.30559596
134	0xbe53e548	-0.20692933
135	0x3f4ed0cc	0.8078735
136	0xbe843bf0	-0.2582698
137	0x3eba0f97	0.3634002
138	0x3bca2e47	0.0061700675
139	0x3e2b7404	0.16743475
140	0xbe6d0d7b	-0.23149674
141	0xbebfef63	-0.37487325
142	0xbe9fcb85	-0.3120996
143	0x3ddad41f	0.1068499
144	0xbe1d6b3d	-0.1537294
145	0x3ead4b38	0.3384645
146	0xbe9df2b6	-0.30849236
147	0xbeb1f894	-0.34759963
148	0xbade152f	-0.0016943569
149	0x3e205930	0.15659022
150	0x3f2da053	0.6782276
151	0xbd0d57a3	-0.034507405
152	0x3f57c205	0.84280425
153	0xbecdf9f1	-0.40229753
154	0x3f6af08b	0.9177329
155	0x3e033c4d	0.12815972
156	0x3f83d790	1.030016
157	0xbe76bd6a	-0.24095693
158	0xbe2502a4	-0.16114289
159	0x3c9f9574	0.019480444
160	0x3dd476ca	0.1037422
161	0x3e705bd7	0.23472534
162	0x3edfea61	0.43733504
163	0x3ee9eec8	0.45689988
164	0x3d5f8f90	0.05458027
165	0x3f4bada2	0.7956182
166	0x3d6afa51	0.057367627
167	0x3dc904e2	0.098153844
168	0xbe39e663	-0.18154292
169	0x3ea4fee4	0.32225716
170	0x3e08f025	0.13372858
171	0x3da70b3a	0.08156438
172	0xbe0e8a54	-0.13919955
173	0xbec7b12b	-0.39002356
174	0x3f9982cc	1.1993041
175	0x3e211042	0.15728858
176	0x3f092123	0.5356619
177	0x3ddb19a7	0.10698252
178	0x3f5ad2fe	0.854782
179	0xbd43a5fc	-0.047765717
180	0xbc9893ab	-0.018625101
181	0x3d5a2acb	0.053263467
182	0x3e9c8e07	0.30577108
183	0xbe402092	-0.18762425
184	0xbed18650	-0.40922785
185	0xbdc9760c	-0.09836969
186	0xbe1e24c1	-0.15443708
187	0x3d8410f5	0.06448547
188	0xbe36cbdf	-0.17851208
189	0xbe96161b	-0.2931374
190	0xbef5e5c0	-0.48026848
191	0x3c153ef8	0.009109251
192	0x3e6b7810	0.22995019
193	0xbe8bbf8b	-0.27294573
194	0xbe436769	-0.19082417
195	0xbe95ec3e	-0.292818
196	0x3f3c0022	0.734377
197	0xbede95c4	-0.43473637
198	0xbc75329c	-0.0149656795
199	0x3ea97a0c	0.33100927
200	0xbe8be677	-0.27324268
201	0x3efffc75	0.49997297
202	0xbea6f8a2	-0.32611567
203	0xbe9ac537	-0.30228588
204	0xbea139ca	-0.31489402
205	0x3f472539	0.7779117
206	0x3ef2bc9f	0.4740953
207	0x3d79aaab	0.060953777
208	0xbea941fb	-0.33058152
209	0xbed99846	-0.42498988
210	0x3ed0d3a8	0.4078648
211	0xbeac1340	-0.33608437
212	0x3f9d08eb	1.2268347
213	0xbe291cea	-0.16514936
214	0x3d701d99	0.058621977
215	0x3f935e26	1.1513107
216	0xbe0db73f	-0.13839434
217	0xbcac859f	-0.02105981
218	0x3f0a723a	0.54080546
219	0x3d5d2d6e	0.053998403
220	0xbe86a3e2	-0.26296908
221	0x3e98f537	0.29874584
222	0xbe58ee87	-0.21184741
223	0xbf033b0a	-0.5126196
224	0xbe9dc229	-0.30812195
225	0xbe2fdbcd	-0.17173691
226	0x3e1dd443	0.15413003
227	0x3f06357c	0.5242536
228	0x3eb278c9	0.34857777
229	0xbcdd1d6a	-0.026991565
230	0xbe629baf	-0.22129701
231	0x3df23cb0	0.118279815
232	0xbe5155db	-0.20442908
233	0xbf070cbf	-0.52753824
234	0xbe974992	-0.29548317
235	0xbe2b6421	-0.16737415
236	0x3eac5c71	0.33664277
237	0x3f07b5f1	0.53011996
238	0xbef358ab	-0.47528586
239	0x3f9349b5	1.1506869
240	0xbe02624c	-0.1273281
241	0xbe86ac1f	-0.26303193
242	0x3e2f5617	0.17122684
243	0xbe2d2419	-0.16908301
244	0xbf1775ef	-0.5916433
245	0x3d048028	0.03234878
246	0xbe349975	-0.17636664
247	0x3f947f5d	1.1601368
248	0xbe882274	-0.26588786
249	0x3db63f7c	0.088988274
250	0xbe3d502a	-0.18487611
251	0x3f5bcbf2	0.8585807
252	0x3e75b8f2	0.23996332
253	0x3f47a3e1	0.77984434
254	0xbea8ba2c	-0.32954538
255	0x3f68200e	0.9067391

fc2.bias f4 [10]
0	0xbe7191d0	-0.2359078
1	0x3e14eee0	0.14544249
2	0x3eed7842	0.46380812
3	0xbcd76ff8	-0.026298508
4	0x3ee686d1	0.45024732
5	0x3e821d02	0.25412756
6	0xbdc11424	-0.0942767
7	0x3ca9e9a5	0.020741293
8	0xbdc05133	-0.093904875
9	0xbe090a3c	-0.1338281
